models/ckpt.pth (torch, 772283 bytes, 14 tensors)

model.0.weight f4 [64, 37]
0	0xbb6ba5e5	-0.0035957035
1	0x3e33c843	0.17556863
2	0xbe1dab56	-0.1539739
3	0xbdca48ca	-0.09877165
4	0xbc2b06bf	-0.01043862
5	0x3dc5427f	0.09631824
6	0xbb594da9	-0.0033157861
7	0x3dafcf92	0.08584513
8	0xbd24f585	-0.04027321
9	0xbdf3331e	-0.11874984
10	0xbd16dd34	-0.03683205
11	0xbd41db8c	-0.047328517
12	0xbd546c98	-0.051861376
13	0xbdf32079	-0.11871428
14	0x3c4f2f5b	0.012645568
15	0x3bc258c5	0.0059309923
16	0x3e17a6f3	0.1480978
17	0x3d5bb153	0.053635906
18	0x3c959980	0.018261671
19	0xbd140d6f	-0.036145624
20	0x3ce1154b	0.027475974
21	0x3e57b88f	0.21066497
22	0x3d0420a6	0.0322577
23	0x3ddc3c4e	0.1075369
24	0x3df2d2e0	0.118566275
25	0xbd05e80d	-0.032692004
26	0x3e6f4d6a	0.23369375
27	0xbdcd4e7c	-0.10024735
28	0xbdea036f	-0.11426436
29	0x3d007642	0.03136278
30	0xbe1d8642	-0.15383247
31	0x3e4bca0f	0.19901298
32	0xbd99860f	-0.07496273
33	0x3d19cc5e	0.037548415
34	0xbe0cf6f6	-0.13766083
35	0xbda9735f	-0.082739584
36	0xbdaef6c0	-0.085431576
37	0x3e08df04	0.13366324
38	0x3c496177	0.012291304
39	0x3e00f012	0.1259158
40	0xbcf4bccb	-0.02987518
41	0xbe2b21b5	-0.16712077
42	0xbc9efdab	-0.019408068
43	0xbdc7aa59	-0.09749288
44	0xbd27f1c5	-0.041002054
45	0xbdcf8bc0	-0.10134077
46	0x3e91688e	0.2840008
47	0x3dd1dd3f	0.102472775
48	0xbdcdaad9	-0.10042352
49	0xbc59bcc9	-0.013289639
50	0x3d69ff99	0.057128523
51	0x3dd17040	0.10226488
52	0x3d243d7b	0.040097695
53	0x3c18ab7e	0.009318231
54	0x3e016004	0.12634283
55	0xbdfa61ea	-0.12225707
56	0xbc49d0b4	-0.012317825
57	0xbdc624e2	-0.096750036
58	0xbe077181	-0.13226892
59	0xbdc7a2f2	-0.09747876
60	0xbd221faa	-0.03958098
61	0xbc863e7c	-0.016387217
62	0xbe09324a	-0.1339809
63	0x3da4bf9e	0.080443606
64	0x3dc9ea54	0.09859148
65	0xbd820efb	-0.063505135
66	0xbd0a5c0f	-0.0337792
67	0x3c2d7cf2	0.010588871
68	0x3e003229	0.12519135
69	0x3e3a53a1	0.18195964
70	0xbe35a6e6	-0.17739448
71	0xbde88a17	-0.113544635
72	0x3dc76418	0.09735888
73	0x3df09c53	0.117485665
74	0x3cbb7473	0.022882676
75	0x3e42a820	0.19009447
76	0x3d4d95bb	0.050191622
77	0xbe5b45de	-0.21413371
78	0xbd8a33d6	-0.06748168
79	0xbe60630a	-0.2191278
80	0xbe31ceb5	-0.17364009
81	0x3e4eee82	0.20208171
82	0x3e1da6c8	0.15395653
83	0xbe0e63bc	-0.13905233
84	0x3d1964ec	0.037449762
85	0xbd2ce16d	-0.04220717
86	0xbbee8876	-0.007279451
87	0xbde8930e	-0.113561735
88	0x3c79078b	0.015199552
89	0xbe33089f	-0.17483757
90	0x3e1b3697	0.15157543
91	0x3ddd2c60	0.107994795
92	0x3d8e66b0	0.0695318
93	0x3d77ff00	0.06054592
94	0xbe33a9dd	-0.17545266
95	0xbda89593	-0.08231654
96	0x3de71f39	0.11285252
97	0x3c424efe	0.0118596535
98	0xbe1856ec	-0.14876908
99	0xbe4bbd83	-0.19896512
100	0x3de03449	0.109474726
101	0x3dfa070f	0.122083776
102	0xbcbe8b34	-0.023259737
103	0xbdf74b92	-0.12074961
104	0xbe5f70d0	-0.21820378
105	0xbc56eafc	-0.013117548
106	0xbdb23659	-0.08701772
107	0xbde980b5	-0.11401502
108	0x3cc52741	0.02406657
109	0x3cefdee5	0.02928109
110	0xbdaa87fe	-0.0832672
111	0x3e0614e9	0.13093914
112	0xbdd91ac2	-0.10600807
113	0x3e320a15	0.17386658
114	0x3d369c50	0.044582665
115	0xbe875d9f	-0.26438615
116	0xbd9a7fed	-0.07543931
117	0x3c389868	0.011266805
118	0x3df36268	0.11884004
119	0x3c44e589	0.012017616
120	0x3dc51261	0.09622646
121	0x3b4f2ce1	0.0031612443
122	0xbdbf92c5	-0.09354166
123	0x3e04c005	0.12963875
124	0xbe102578	-0.14076793
125	0xbd3627cd	-0.04447155
126	0xbd18d314	-0.037310675
127	0xbe0cb7a8	-0.13741934
128	0xbccc7b5f	-0.024961172
129	0xbe0f87b8	-0.14016616
130	0xbe769388	-0.24079716
131	0x3d35644f	0.044285115
132	0xbe209c49	-0.15684618
133	0x3d9e3e5a	0.07726736
134	0x3cc2493b	0.02371656
135	0xbcbcfadc	-0.023068838
136	0xbd8cb928	-0.06871253
137	0x3e063d5e	0.13109347
138	0x3d857192	0.065158024
139	0x3e0ca67f	0.13735388
140	0x3daf85b5	0.085704245
141	0x3d8c770a	0.068586424
142	0x3e6ccce2	0.23125032
143	0x3c9bfc19	0.019041108
144	0xbe797650	-0.24361539
145	0xbd5f2cda	-0.054486133
146	0x3dcf6362	0.10126378
147	0xbc20cdb7	-0.009814671
148	0xbd4f24ef	-0.050572332
149	0xbd56be16	-0.052427374
150	0xbe21a790	-0.15786576
151	0xbda0bba7	-0.07848292
152	0xbb01772b	-0.0019754868
153	0x3e109684	0.14119917
154	0xbcda5e8b	-0.02665641
155	0xbe33dd5b	-0.17564909
156	0x3c595689	0.0132652605
157	0xbec6896d	-0.38776723
158	0xbd0b2f40	-0.033980608
159	0xbd17718e	-0.03697353
160	0x3d88ca25	0.06679181
161	0x3d0677af	0.032828983
162	0xbdabbe21	-0.083858736
163	0xbe08203a	-0.13293543
164	0xbc25ee56	-0.0101276245
165	0x3d10a3f4	0.035312608
166	0xbb90b9a7	-0.0044166627
167	0x3da13cdb	0.078729354
168	0xbde72141	-0.112856396
169	0x3d51996e	0.051171713
170	0x3e279786	0.16366395
171	0xbd5318b3	-0.051537227
172	0x3e87615a	0.2644146
173	0x3d9c786e	0.07640158
174	0xbe013cd8	-0.12620866
175	0x3e12a63d	0.14321227
176	0x3c7bfb42	0.015379729
177	0xbbb15165	-0.0054113143
178	0x3e0b4b3d	0.1360292
179	0xbdea4b28	-0.11440116
180	0x3d982111	0.07428182
181	0x3c074f32	0.008258628
182	0x3e7f35cb	0.24922864
183	0x3bb3fe0e	0.005492932
184	0x3d92e336	0.07172243
185	0x3d90e1e9	0.07074339
186	0xbdd03519	-0.101663776
187	0xbd27e7b7	-0.040992465
188	0xbe0b87ce	-0.13626024
189	0x3dbf6264	0.093449384
190	0x3e23e874	0.16006643
191	0x3b368fe5	0.0027856764
192	0xbe7d730e	-0.24750921
193	0xbd9ac5fb	-0.07557293
194	0xbf01110d	-0.5041664
195	0xbda8be61	-0.08239437
196	0xbdc99d79	-0.09844489
197	0xbc1616b8	-0.00916069
198	0xbe194c1c	-0.1497044
199	0x3ca2d9ad	0.019879187
200	0x3c262994	0.010141749
201	0x3d56fa89	0.052485023
202	0xbdff4463	-0.124642156
203	0xbe1855a6	-0.14876422
204	0xbdfac76e	-0.122450694
205	0x3dbfae56	0.09359424
206	0xbd906715	-0.07050911
207	0x3de3167f	0.11088275
208	0x3cc1601d	0.0236054
209	0x3cc0ef42	0.023551587
210	0xba70bc73	-0.00091833546
211	0xbd76f66f	-0.06029361
212	0xbbce18d9	-0.006289583
213	0xbd4ffef4	-0.05078025
214	0xbd6c576a	-0.057700552
215	0x3d18949f	0.03725111
216	0xbe35b1aa	-0.17743555
217	0xbdf445d0	-0.11927378
218	0x3d50c8fd	0.050972927
219	0xbe8b5e2f	-0.27220294
220	0xbad744c5	-0.0016423693
221	0x3e191690	0.14950013
222	0x3df23135	0.11825792
223	0xbbc23741	-0.005926997
224	0xbe0abe39	-0.13549127
225	0x3dd3d19d	0.10342715
226	0xbdab694f	-0.083696954
227	0xbcf2a186	-0.029618036
228	0xbc617005	-0.013759618
229	0xbc539d90	-0.012915984
230	0x3a56a05c	0.00081873476
231	0x3e1e1bb1	0.15440251
232	0x3c965c9f	0.018354712
233	0x3e4c1513	0.19929914
234	0x3dc2e942	0.09517147
235	0xbd3d334a	-0.04619149
236	0x3e078415	0.13233979
237	0x3ba600af	0.0050659995
238	0xbd80172f	-0.06254422
239	0xbc8584d9	-0.016298698
240	0x3db8c2b4	0.09021512
241	0x3e4623b4	0.19349557
242	0xbbe35640	-0.006937772
243	0xbae86fa0	-0.0017733462
244	0x3d2afe50	0.041746438
245	0xbe027b1a	-0.12742272
246	0x3dbcb53c	0.09214255
247	0xbdc51264	-0.09622648
248	0x3dd51190	0.104037404
249	0xbc6ff0a3	-0.014644775
250	0xbe05b480	-0.13057137
251	0x3d9d3dc5	0.07677797
252	0x3e42048d	0.18947048
253	0xbd766984	-0.06015922
254	0xbe141ea4	-0.14464813
255	0xbcb5a7d6	-0.022174757

model.0.bias f4 [64]
0	0x3e2db91f	0.1696515
1	0xbd18c724	-0.03729929
2	0xbded760e	-0.11594783
3	0xbd443860	-0.047905326
4	0x3e45dfb9	0.19323625
5	0xbd081c08	-0.033229858
6	0xbd8e02df	-0.06934141
7	0x3dcbf7f0	0.099594
8	0x3d0a8d07	0.0338259
9	0xbde9081f	-0.11378502
10	0x3dfe9e3b	0.12432524
11	0x3de3ad43	0.111170314
12	0x3e1c6c3b	0.15275662
13	0x3dd3d7e6	0.10343914
14	0xbcd2d8dd	-0.025738174
15	0xbd030a10	-0.03199202
16	0x3db6e9ab	0.089312874
17	0xbc15db52	-0.009146528
18	0x3d101ae6	0.035181902
19	0xbe29d576	-0.16585335
20	0xbd80344e	-0.06259976
21	0x3d5021f2	0.050813623
22	0xbaaea0b3	-0.0013323039
23	0xbde1492d	-0.11000285
24	0xbe06a58c	-0.13149089
25	0x3df9055a	0.12159224
26	0x3aed315e	0.0018096378
27	0xbe13c5cd	-0.14430924
28	0x3e2fa07d	0.17151065
29	0x3e0175f3	0.1264265
30	0xbda3bb61	-0.07994724
31	0xbe012d9e	-0.12615058
32	0x3e35af75	0.17742713
33	0xbcc55067	-0.02408619
34	0xbdf8a251	-0.121403344
35	0x3daf1796	0.085494205
36	0xbd3a6773	-0.045508813
37	0x3cc8f793	0.024532115
38	0xbd8e7872	-0.06956567
39	0xbdf209a1	-0.11818243
40	0xbd8778c6	-0.066148326
41	0x39872416	0.00025776093
42	0xbdc1ffec	-0.09472641
43	0x3e2ac3a7	0.16676198
44	0x3c683007	0.014171607
45	0xbd13ee7e	-0.036116116
46	0x3d7c0c2f	0.061535057
47	0xbe1f9f9b	-0.15588228
48	0xbd845cab	-0.064629875
49	0x3d67a6fc	0.056555733
50	0xbdf236c5	-0.11826853
51	0x3ddb6f90	0.10714638
52	0x3ca7edbd	0.020499105
53	0xbddbd040	-0.1073308
54	0xbe30077c	-0.17190355
55	0x3d69d13a	0.0570843
56	0x3d81d149	0.06338746
57	0xbc7b3796	-0.015333077
58	0xbde1f57d	-0.11033151
59	0xbde4a0d2	-0.111634865
60	0x3cd706e3	0.026248401
61	0x3d31bfe2	0.043395884
62	0x3d820756	0.063490555
63	0x3ceaab40	0.028646111

model.1.weight f4 [128, 64]
0	0x3bca5b07	0.006175402
1	0x3dbfd622	0.093670145
2	0x3dcb34b7	0.09922164
3	0x3e3e43f9	0.18580617
4	0x3e1d4925	0.15359934
5	0xbd0e6765	-0.034766573
6	0x3ba1f8b9	0.00494298
7	0xbc1ff812	-0.009763734
8	0x3d47047a	0.048588254
9	0x3db4e130	0.088320136
10	0x3b2afcf7	0.002609072
11	0xbd71f9eb	-0.05907623
12	0xbd8b4753	-0.068007134
13	0x3e0c6a01	0.13712312
14	0xbcc5ca09	-0.02414419
15	0xbcbadb4f	-0.022809653
16	0xbd8a7e8b	-0.067624174
17	0xbd308aff	-0.043101307
18	0x3d1465ab	0.03622977
19	0x3cc2994a	0.023754735
20	0xbce148d7	-0.027500553
21	0xbd864d69	-0.065577336
22	0x3e23d09e	0.1599755
23	0xbd908517	-0.07056635
24	0xbd7e9759	-0.062156055
25	0xbd714333	-0.058901977
26	0x3df02c82	0.11727239
27	0x3cc5f592	0.024164949
28	0x3d269233	0.04066677
29	0x3c8825ec	0.016619645
30	0x3da03dfd	0.07824323
31	0xbd9c059b	-0.07618257
32	0x3deeff30	0.11669767
33	0x3ce19ba1	0.02754003
34	0x3d067ac1	0.03283191
35	0x3cdc98d5	0.026928345
36	0xbd962eaf	-0.07333123
37	0x3e06a5e7	0.13149224
38	0x3e2f5ee8	0.17126048
39	0xbda4d491	-0.08048356
40	0xbd915bf1	-0.070976146
41	0x3c6425ca	0.013925025
42	0x3da17ac9	0.078847475
43	0xbcf46e24	-0.029837675
44	0x3e19c4aa	0.15016428
45	0xbc98c3f8	-0.018648133
46	0xbdc007cc	-0.09376487
47	0x3d873622	0.06602122
48	0xbd1657f2	-0.036704965
49	0x3c572b4a	0.0131328795
50	0xbcda6f91	-0.026664527
51	0x3c1c6239	0.0095449025
52	0xbd9f170d	-0.077680685
53	0xbd72bb0f	-0.059260424
54	0xbdac4079	-0.08410735
55	0x3c9723a1	0.018449606
56	0xbd8abb8c	-0.06774053
57	0xbbd4ca8b	-0.0064938716
58	0xbe0c2558	-0.1368612
59	0x3d7df604	0.062002197
60	0x3daa401d	0.0831301
61	0x3e0de243	0.13855843
62	0xbd8d8189	-0.069094725
63	0xbac3a723	-0.001492713
64	0x3e1ee389	0.15516485
65	0x3dea3a1f	0.11436867
66	0xbe3c7436	-0.18403706
67	0x3d20c9ff	0.03925514
68	0x3d8ef6c1	0.06980658
69	0x3db0b912	0.08629049
70	0xbdff29d4	-0.1245915
71	0x3d91e204	0.07123187
72	0xbd270176	-0.040772878
73	0xbd889f28	-0.06670982
74	0x3ce266e3	0.02763695
75	0x3df7bc8e	0.12096511
76	0xbc5295cb	-0.012853096
77	0x3db10f50	0.08645499
78	0xbd652bce	-0.05594998
79	0x3de3fc2b	0.111320816
80	0x3d9296b6	0.07157652
81	0x3d51d33b	0.051226836
82	0xbdb8e994	-0.090289265
83	0xbd8d26ef	-0.068921916
84	0x3d1617f8	0.036643952
85	0xbddcc944	-0.10780576
86	0x3cf05688	0.029338136
87	0xbdc3e2c7	-0.09564739
88	0xbc5542bb	-0.013016398
89	0x3d43f0c0	0.04783702
90	0xbdb8a7a2	-0.090163484
91	0xbe01fc14	-0.12693816
92	0x3d8fc050	0.070191026
93	0xbdc6adae	-0.097010955
94	0x3d314ad7	0.043284263
95	0xbe175a97	-0.14780651
96	0xbcb4ab00	-0.022054195
97	0xba9368f5	-0.001124649
98	0x3db9c7b8	0.090712965
99	0xbd8edfa7	-0.06976252
100	0x3c2e2a21	0.0106301615
101	0x3d87ff38	0.06640476
102	0x3e0b96c4	0.13631731
103	0xbdefd4ec	-0.117105335
104	0xbd2d90b9	-0.042374346
105	0x3d6bb518	0.05754575
106	0xbc277515	-0.010220786
107	0xbda8f74b	-0.082502924
108	0xbddd8594	-0.10816494
109	0xbe43b476	-0.19111809
110	0xbda50e6d	-0.08059392
111	0xbd52458a	-0.05133585
112	0xbd9deb30	-0.07710874
113	0xbe205c3b	-0.15660183
114	0x3c87d0dd	0.016579086
115	0x3db22648	0.08698708
116	0xbd770365	-0.06030597
117	0xbba98e1c	-0.0051744115
118	0x3d0550cd	0.03254776
119	0x3d7511f0	0.05983156
120	0xbd9e365d	-0.07725213
121	0xbc85b0c0	-0.016319633
122	0x3e13f1a6	0.1444765
123	0x3d296c44	0.041363016
124	0xbdf4b672	-0.11948861
125	0xbca328c5	-0.019916901
126	0xbcea5760	-0.028606117
127	0xbd44154d	-0.047871877
128	0xbdb80814	-0.08985916
129	0xbc59f0bf	-0.013302027
130	0x3de4a37a	0.11163993
131	0xbc18d499	-0.009328031
132	0xbcdaa14d	-0.026688242
133	0x3c67635a	0.014122808
134	0xbdec8ae1	-0.115499265
135	0xbc63343a	-0.013867432
136	0x3d5f55ee	0.05452531
137	0xbdcfcb83	-0.10146239
138	0x3c8d767d	0.017268414
139	0x3d0d76af	0.034537014
140	0x3d911715	0.07084481
141	0x3d91920a	0.07107933
142	0x3d830ff0	0.06399524
143	0x3aa3cec1	0.001249753
144	0xbdd7972b	-0.1052688
145	0x3c58c277	0.013229958
146	0x3da8e4a3	0.08246734
147	0xbd6a4cb6	-0.057202064
148	0xbddba0a2	-0.10723998
149	0x3da23520	0.07920289
150	0xbdc7c83a	-0.09754987
151	0x3d00ed37	0.031476226
152	0xbd2bebcf	-0.04197293
153	0x3da2c4a6	0.07947664
154	0x3e19c9be	0.15018365
155	0x3de452ad	0.11148582
156	0xbd4ba013	-0.049713206
157	0x3d895080	0.06704807
158	0x3dc2dc8b	0.095147215
159	0x3c496918	0.012293123
160	0xbd86bc72	-0.06578912
161	0xbd51f979	-0.051263306
162	0xbe156d0e	-0.14592382
163	0x3db3b785	0.08775238
164	0x3df2f15e	0.118624434
165	0x3dd9f633	0.10642662
166	0x3d901557	0.0703532
167	0x3d6e4033	0.058166694
168	0x3db036cc	0.08604202
169	0x3c263224	0.01014379
170	0xbd83edcd	-0.06441841
171	0xbe193ba2	-0.14964154
172	0xbd6368e2	-0.055519946
173	0xbcca8f17	-0.024726434
174	0x3d1e283a	0.03861258
175	0xbd83ac30	-0.064293265
176	0xbd87d722	-0.0663283
177	0xbdaa023b	-0.08301207
178	0xbdc2efb0	-0.09518373
179	0x3d62965f	0.055319186
180	0xbe3cbb01	-0.18430711
181	0x3e07735d	0.13227601
182	0xbd987565	-0.07444266
183	0xbe2eb66d	-0.17061777
184	0x3c79608f	0.015220775
185	0xbe22d77c	-0.15902513
186	0x3d0b67c0	0.03403449
187	0x3dd68286	0.10474114
188	0xbda92af2	-0.08260144
189	0xbc60d906	-0.013723617
190	0x3e0e3d9a	0.13890687
191	0x3d858698	0.06519812
192	0xbbe0127a	-0.00683814
193	0xbdf917b4	-0.12162724
194	0x3dcadc2f	0.09905278
195	0xbdf42d53	-0.119227074
196	0xbd2de1e1	-0.042451743
197	0xba559ea6	-0.00081489456
198	0xbd6815bd	-0.056661356
199	0xbd6d58af	-0.057945903
200	0xbe08d4be	-0.13362405
201	0x3cb4071c	0.021976046
202	0xbc8a56b6	-0.01688705
203	0x3dc074ff	0.09397315
204	0xbd0cf5cc	-0.034414098
205	0x3df17f0f	0.11791813
206	0x3ca60e0a	0.020270366
207	0xbd66b943	-0.056329023
208	0xbc9e65de	-0.019335683
209	0xbc81c75b	-0.01584213
210	0xbc42102c	-0.011844676
211	0xbcd2ab04	-0.025716312
212	0x3d5e456c	0.054265425
213	0x3e0eeca2	0.13957456
214	0x3cb5ac7c	0.022176974
215	0x3d722c77	0.059124436
216	0x3d9651c1	0.07339812
217	0x3d9bda30	0.07609975
218	0x3d80e8ef	0.062944286
219	0x3d8400be	0.06445454
220	0x3df66042	0.120300785
221	0xbe187a26	-0.14890346
222	0x3d178cc9	0.036999498
223	0xb6af3390	-5.221409e-06
224	0xbbd59fdd	-0.0065193013
225	0xbd50179f	-0.050803777
226	0x3d893d6c	0.067011684
227	0x3ddd6bdb	0.108115874
228	0xbdcd3100	-0.10019112
229	0x3d8fa43a	0.070137456
230	0x3dd87511	0.10569204
231	0x3cee15cb	0.029063126
232	0x3b189dea	0.0023287483
233	0x3dce6213	0.100773
234	0x3ae5394e	0.0017488392
235	0xbcd516b8	-0.02601181
236	0xbc074771	-0.008256779
237	0x3d0c4495	0.034245092
238	0x3cf10cc5	0.029425034
239	0xbc5a9d46	-0.013343161
240	0x3cf87598	0.03032951
241	0x3ce7bd98	0.028288648
242	0xbdb2f538	-0.08738178
243	0x3d047344	0.03233649
244	0x3dab40aa	0.08361943
245	0x3d7d2825	0.061805863
246	0xbd16164f	-0.03664237
247	0x3dafb9b4	0.08580342
248	0xbdc27ffe	-0.09497069
249	0xbda9271e	-0.08259414
250	0xbd986d55	-0.074427284
251	0x3e08f42c	0.13374394
252	0xbe057e07	-0.13036357
253	0xbb6ab65b	-0.0035814259
254	0xbdd1f59c	-0.102519244
255	0x3d12b6ea	0.03581897

model.1.bias f4 [128]
0	0x3da4dfd4	0.08050504
1	0x3c78cb20	0.0151851475
2	0x3d408eb4	0.047011092
3	0xbda86a2a	-0.08223374
4	0x3dd67539	0.10471577
5	0x3da98702	0.08277704
6	0x3d499ef2	0.049223848
7	0xbcc43daa	-0.023955185
8	0x3c9d4bb2	0.019201133
9	0x3ddf474a	0.10902269
10	0x3c891d9c	0.016737752
11	0xbd8466ed	-0.06464944
12	0xbc6ded9e	-0.014521984
13	0xbe0b3382	-0.13593867
14	0x3ccc3257	0.024926348
15	0xbde9a815	-0.11409012
16	0x3d6165dd	0.055028785
17	0x3d20b9e4	0.03923978
18	0x3dfb63e1	0.1227491
19	0xbd3c03fe	-0.045902245
20	0xbce0d819	-0.027446793
21	0x3c50c694	0.012742657
22	0xbd78d72f	-0.06075209
23	0xbd8cd866	-0.06877212
24	0xbd356410	-0.04428488
25	0xbbaa1f59	-0.005191725
26	0x3cdb67fa	0.026782978
27	0x3db02c67	0.08602219
28	0x3cd32d38	0.025778398
29	0x3da51e5c	0.08062431
30	0xbcb6b5d4	-0.0223035
31	0x3d13806b	0.03601114
32	0xbdedddf4	-0.116146
33	0x3da9bc97	0.08287924
34	0x3dd29620	0.1028254
35	0x3d8c6d43	0.068567775
36	0xbdb71306	-0.08939175
37	0x3a8495d5	0.0010115454
38	0xbdc60ab1	-0.09670008
39	0xbdb1e742	-0.08686687
40	0x3deae8f6	0.11470215
41	0x3d6063bf	0.054782625
42	0x3da2a5b7	0.07941764
43	0x3dc1a9b5	0.09456197
44	0xbcf3ad59	-0.029745745
45	0x3d6a89a8	0.057260185
46	0xbd588b2e	-0.052867107
47	0xbdb0e02f	-0.086365096
48	0xbc8f58ca	-0.017498393
49	0xbd97d707	-0.0741406
50	0x3de692cb	0.11258467
51	0xbdde45a2	-0.10853125
52	0x3dcce33b	0.10004278
53	0xbc94c0a9	-0.018158274
54	0x3c858a65	0.016301343
55	0x3e038277	0.12842737
56	0xbd9137ff	-0.070907585
57	0xbcf41705	-0.029796133
58	0x3d630a89	0.05542997
59	0xbd0409df	-0.032235976
60	0x3a8d3b2a	0.0010775079
61	0x3dbe08ff	0.092790596
62	0x3cee01fb	0.029053679
63	0x3dd9ec79	0.10640807
64	0x3c24194a	0.010015795
65	0x3d3c4e73	0.045973253
66	0x3c6d9380	0.014500499
67	0xbdd6d49d	-0.104897715
68	0x3b88ab18	0.0041707866
69	0x3d4055e8	0.046956927
70	0xbd085da0	-0.033292413
71	0x3df5c4a3	0.12000396
72	0xbd5c9991	-0.05385739
73	0x3d4b6a77	0.04966208
74	0x3d308b3c	0.043101534
75	0xbd9171fd	-0.0710182
76	0x3dca7aa9	0.09886677
77	0xbd04b7db	-0.0324019
78	0xbc2a4ea9	-0.010394731
79	0xbc8ebe66	-0.017424773
80	0xbdebcf2b	-0.115141235
81	0x3da73ca4	0.08165863
82	0xbd3949c5	-0.045236368
83	0x3d98235c	0.07428619
84	0x3d9eee1f	0.07760262
85	0x3d9d47a6	0.076796815
86	0x3d06de88	0.032927066
87	0x3d625c16	0.0552636
88	0xbdd59a25	-0.10429791
89	0xbb517931	-0.0031963105
90	0xbd250676	-0.040289365
91	0x3db360e2	0.08758713
92	0x3cec4911	0.028843435
93	0x3c15642f	0.009118124
94	0xbdd1db1e	-0.102468714
95	0xbe07acfe	-0.13249585
96	0xbdc16863	-0.09443738
97	0x3d9b8109	0.07592971
98	0x3da6388d	0.08116255
99	0xbdbfdcae	-0.09368263
100	0xbdc549e4	-0.09633234
101	0x3dea061b	0.11426946
102	0x3d85be33	0.06530418
103	0xbda914f9	-0.08255953
104	0xbc01ecb3	-0.007929969
105	0x3db77b1f	0.0895903
106	0x3d6d58fb	0.057946187
107	0xbd01cd31	-0.031689826
108	0xbd0f6310	-0.035006583
109	0xbcd77801	-0.02630234
110	0xbd34c3a9	-0.04413191
111	0xbdb403c4	-0.08789781
112	0xbdc0222c	-0.09381518
113	0x3dd1a079	0.10235686
114	0x3c912495	0.017717639
115	0x3d8169b3	0.06318989
116	0xbd933026	-0.07186918
117	0x3c2ad551	0.010426835
118	0x3dea9c69	0.11455614
119	0x3d830fad	0.06399474
120	0xbcb30224	-0.021851607
121	0xbd4f25b6	-0.050573073
122	0x3e11e7c2	0.14248565
123	0xbd83abc2	-0.064292446
124	0xbccc7b6d	-0.024961198
125	0x3c7e0b06	0.015505558
126	0xbcbb636d	-0.022874558
127	0x3ca197ad	0.019725645

model.2.weight f4 [256, 128]
0	0x3c6dd018	0.014514945
1	0xbdb52e84	-0.08846763
2	0x3dac18e2	0.084031835
3	0x3e1b1669	0.15145268
4	0xbdead2f3	-0.114660166
5	0x3d787119	0.060654733
6	0x3d098490	0.033573687
7	0xbd5eddec	-0.05441086
8	0x3daa8339	0.0832581
9	0x3d67bf1c	0.05657874
10	0x3ca0d8a3	0.01963455
11	0xbd4aacd9	-0.049481247
12	0xbd0f5974	-0.03499742
13	0x3d562bd4	0.05228789
14	0xbd11660e	-0.035497718
15	0x3c50e9ff	0.0127511015
16	0xbc5648b4	-0.013078857
17	0xbd9dc29d	-0.07703135
18	0x3dec0ce3	0.115258954
19	0x3c58fb45	0.013243501
20	0xbbf662da	-0.0075191082
21	0x3c171e29	0.009223499
22	0xbc96335f	-0.018335043
23	0xbd9dd079	-0.07705779
24	0xbdbd850c	-0.09253892
25	0x3dbde767	0.09272652
26	0x3d7c4e14	0.0615979
27	0xbd9d75a4	-0.07688454
28	0x3d9f0d57	0.07766216
29	0x3dbae2c6	0.09125285
30	0xbd621681	-0.055197243
31	0xbd427218	-0.04747209
32	0x3d332b51	0.04374248
33	0xbd12bb11	-0.03582293
34	0x3d90ba64	0.07066801
35	0x3ce10af3	0.027471041
36	0xbc9596ad	-0.018260324
37	0x3c01b9a1	0.007917793
38	0xbc04838c	-0.008088004
39	0x3da5deb9	0.080991216
40	0xbdf6cdeb	-0.120509945
41	0x3d08c3b2	0.033389755
42	0x3c98ea17	0.01866631
43	0xbdac71a1	-0.084201105
44	0x3dc0da20	0.09416604
45	0x3da47563	0.08030202
46	0xbdeeb536	-0.11655657
47	0x3d84f84c	0.06492671
48	0xbd5f425f	-0.054506656
49	0x3d844b5a	0.06459685
50	0xbc54f3c8	-0.012997575
51	0xbda2f55c	-0.07956955
52	0x3d3ab7fa	0.04558561
53	0x3c6f9d0a	0.014624843
54	0x3c5c03ef	0.013428672
55	0xbd897422	-0.06711604
56	0x3d8d5581	0.06901074
57	0xbcdea807	-0.027179731
58	0x3d8a0ad6	0.06740348
59	0xbd498cb5	-0.049206454
60	0x3b84f3f6	0.0040574027
61	0x3d003fee	0.031310968
62	0x3c7916f8	0.01520323
63	0xbdf80e81	-0.121121414
64	0x3d18b295	0.037279684
65	0x3d64538b	0.055743735
66	0xbd9fb49b	-0.0779812
67	0x3cb4e3d0	0.022081286
68	0xbcb68bb9	-0.022283422
69	0xbd28c5d0	-0.041204274
70	0xbc8af9a8	-0.016964749
71	0x3db1bc23	0.08678462
72	0x3cabec1c	0.02098661
73	0xbda0a873	-0.07844629
74	0x3e09bb70	0.13450408
75	0x3c985919	0.018597173
76	0xbd55ec92	-0.052227564
77	0x3ce8c15b	0.028412512
78	0xbdbc6696	-0.09199254
79	0x3ca767f7	0.020435316
80	0x3d79b975	0.06096788
81	0x3c83b7ab	0.01607879
82	0xbdd2f582	-0.10300733
83	0x3d2a4eeb	0.04157917
84	0xbc46c753	-0.012132484
85	0xbbd1a3da	-0.0063977065
86	0x3ce4dcbc	0.027937286
87	0xbd85409e	-0.065064654
88	0xbd82aa50	-0.06380141
89	0xbda2f56d	-0.079569675
90	0xbdc4530b	-0.09586152
91	0x3ccb6345	0.024827609
92	0x3d608dde	0.054822795
93	0x3d974fa6	0.073882386
94	0xbd85666b	-0.06513675
95	0x3c11502e	0.008869214
96	0x3d1c9f18	0.03823766
97	0x3c5f781c	0.013639476
98	0xbdbf8db7	-0.09353202
99	0xbb5b4633	-0.003345859
100	0xbcfa2c0e	-0.030538585
101	0x3d6a0fcd	0.057143975
102	0x3cfb45a9	0.030672865
103	0x3d12314a	0.035691537
104	0x3d6d4312	0.05792529
105	0x3cd995fd	0.026560778
106	0xbc9c4463	-0.019075578
107	0xbce678e3	-0.028133815
108	0xbc92ab55	-0.017903963
109	0xbe30340a	-0.17207351
110	0xbb847b92	-0.004043051
111	0x3c81eb6c	0.015859328
112	0x3cc10a3b	0.023564449
113	0xbd9de545	-0.07709745
114	0xbcd5d1cb	-0.026101014
115	0x3df42d28	0.11922675
116	0x3d83ad44	0.06429532
117	0x3cc7e166	0.02439947
118	0x3cc5d47e	0.024149176
119	0xbd8e4cba	-0.06948228
120	0x3d56e14b	0.05246095
121	0xbc09e3fa	-0.00841617
122	0xbb01315c	-0.0019713258
123	0xbcb27fd8	-0.021789476
124	0xbd85a488	-0.065255225
125	0x3da7a113	0.08185019
126	0xbdbb8266	-0.09155731
127	0xba55a1dd	-0.00081494247
128	0x3d9897a5	0.07450799
129	0x3b2431bc	0.0025054058
130	0x3d08eb40	0.033427477
131	0x3d9594bc	0.073037595
132	0xbd3bdb8c	-0.045863673
133	0x3d566ddd	0.052350868
134	0xbcb3164e	-0.021861222
135	0xbd3d5990	-0.04622799
136	0xbd0c0bdc	-0.034190997
137	0x3d97355e	0.07383226
138	0x3d5aece7	0.053448584
139	0x3c3a59a2	0.011373909
140	0x3dd70c4d	0.10500393
141	0x3cb21c42	0.02174199
142	0xbbcc0853	-0.0062265783
143	0x3d73d88c	0.059532687
144	0x3d4884a0	0.048954606
145	0x3dc533bf	0.096290104
146	0x3d818250	0.06323683
147	0x3dbb1473	0.0913476
148	0x3d6c3f0b	0.05767731
149	0xbd48733c	-0.04893802
150	0xbd292647	-0.04129627
151	0xbcdc785e	-0.026912864
152	0xbda28983	-0.079363845
153	0x3df77927	0.12083655
154	0xbd52ee44	-0.05149676
155	0x3cc178b3	0.023617124
156	0xbd4f4db9	-0.05061123
157	0x3d460783	0.048347007
158	0xbd811438	-0.063026845
159	0x3c56375f	0.013074725
160	0x3d2efb37	0.042720046
161	0x3baf691e	0.005353107
162	0x3d0b12ae	0.03395336
163	0x3c6503c7	0.013977951
164	0x3d904214	0.070438534
165	0xbdd3a257	-0.10333698
166	0xbcfcd6e7	-0.030864192
167	0xbd91688d	-0.071000196
168	0xbdaacae4	-0.083394796
169	0xbd2ec2c5	-0.042666215
170	0x3d42a57b	0.047521096
171	0x3dc84148	0.097780764
172	0xbb1d812b	-0.002403329
173	0x3c35d793	0.01109876
174	0x3bf61b1a	0.007510555
175	0xbd9602ff	-0.0732479
176	0x3daccb55	0.0843722
177	0x3da424e1	0.080148466
178	0xbd867a30	-0.06566274
179	0x3d136196	0.035981737
180	0x3d9c228a	0.07623775
181	0x3d5d1434	0.053974345
182	0x3dae44ba	0.08509202
183	0x3dd22613	0.10261168
184	0x3da0c2c6	0.0784965
185	0x3a9d7f67	0.0012016118
186	0xbca837d0	-0.020534426
187	0x3ca65d13	0.020308053
188	0xbd140fff	-0.036148068
189	0x3d3bc202	0.045839317
190	0xbd4f63ab	-0.05063216
191	0x3d9a4852	0.07533325
192	0x3e03d6d2	0.12874916
193	0x3db3a197	0.08771055
194	0x3daa3b22	0.0831206
195	0x3dbdb9a0	0.09263921
196	0xbda872c7	-0.08225017
197	0xbda7a778	-0.08186239
198	0xbda156c7	-0.078778796
199	0x3d7f5b28	0.062342793
200	0xbd3c16da	-0.04592023
201	0x3d76cbfa	0.06025312
202	0x3d2c3545	0.04204299
203	0x3dc5d888	0.09660441
204	0xbd14f2a9	-0.03636423
205	0xbcc0d997	-0.023541255
206	0xbdaa306d	-0.08310018
207	0xbd975215	-0.07388703
208	0xbd9690a3	-0.07351806
209	0x3d4ee84b	0.0505145
210	0xbdc03235	-0.09384576
211	0x3b229cc6	0.0024812683
212	0x3db55828	0.08854705
213	0x3d4fb7d4	0.05071242
214	0x3cff2b19	0.03114848
215	0xbd06fd7a	-0.032956578
216	0x3d86b943	0.065783046
217	0x3d88114f	0.06643926
218	0xbe04bb5a	-0.12962094
219	0xbc59a4ca	-0.013283918
220	0xbd69a197	-0.05703887
221	0xbd1a731b	-0.03770743
222	0x3d57f3cb	0.052722733
223	0xbda5e205	-0.080997504
224	0xbd438a15	-0.047739107
225	0x3d84aad4	0.064778954
226	0x3d9fb0e4	0.07797411
227	0xbd5f12e2	-0.054461367
228	0x3d3d487d	0.04621171
229	0xbd7268c6	-0.05918195
230	0xbcde7931	-0.027157398
231	0x3d84eac0	0.064900875
232	0xbcaba79f	-0.020953951
233	0x3dde2e0c	0.108486265
234	0xbda55b30	-0.08074033
235	0x3daa8837	0.08326762
236	0xbc5e6753	-0.013574439
237	0x3ca15d7b	0.019697895
238	0x3d1cd0b9	0.03828499
239	0x3a005230	0.00048950594
240	0x3dacba36	0.084339544
241	0xbc0943a0	-0.008377939
242	0xbd39ca21	-0.04535878
243	0x3ca2eb45	0.019887576
244	0xbc3547e3	-0.011064502
245	0xbd6c05a3	-0.057622563
246	0xbd3f8235	-0.046755034
247	0x3de0e9a0	0.109820604
248	0x3cdefea6	0.027221035
249	0xbd905d5e	-0.070490584
250	0x3db72f7c	0.08944604
251	0x3d4f6ff7	0.050643887
252	0x3d063c0c	0.03277211
253	0x3c87a6e5	0.016559074
254	0x3d0de23c	0.034639582
255	0x3c0ce2f5	0.008599033

model.2.bias f4 [256]
0	0x3a71685e	0.00092089723
1	0xbd3d7dd1	-0.046262566
2	0xbd3f9298	-0.046770662
3	0x3da9af5d	0.08285401
4	0xbc28a7c2	-0.010293903
5	0x3c1cf673	0.009580242
6	0xbdaa6cae	-0.0832151
7	0xbd654eee	-0.055983476
8	0x3c8344ef	0.016024081
9	0x3da697ca	0.0813442
10	0xbd890388	-0.06690127
11	0x3dc44e20	0.09585214
12	0xbbd1a18c	-0.0063974317
13	0x3d86e213	0.06586089
14	0x3db3853a	0.08765645
15	0xbd0d76b5	-0.034537036
16	0x3da66f0b	0.081266485
17	0x3d9d5d28	0.07683784
18	0xbd3bd376	-0.04585596
19	0xbcd2a8a9	-0.025715189
20	0xbd8441cc	-0.06457862
21	0xbdb412c9	-0.087926455
22	0xbc1c5078	-0.00954067
23	0xbc90050c	-0.017580532
24	0x3d937275	0.07199565
25	0xbd1de795	-0.038550932
26	0xbd82ddaf	-0.06389939
27	0xbd9f7607	-0.07786184
28	0x3b8b66d4	0.0042542014
29	0xbbbea96c	-0.0058185365
30	0x3c8e1db7	0.017348154
31	0xbd662bb8	-0.056194037
32	0xbd822360	-0.063544035
33	0x3cc41819	0.023937272
34	0x3b31423c	0.0027047535
35	0x3d87bba1	0.06627584
36	0xbcb2d1e9	-0.021828609
37	0xbd05cd2a	-0.032666363
38	0x3db6f0f5	0.08932678
39	0xbd9b3a61	-0.07579494
40	0x3dcb7226	0.099338815
41	0x3d8ee44a	0.069771364
42	0x3da2a2f9	0.07941241
43	0x3dab8c53	0.08376374
44	0x3cf6bfc7	0.030120743
45	0xbd4b36f7	-0.049612965
46	0xbd35e0de	-0.044403903
47	0xbd33c7d1	-0.04389173
48	0x3d04013d	0.032227743
49	0x3d692157	0.05691656
50	0x3d0ae65b	0.03391109
51	0x3c9e00cd	0.019287491
52	0xbd2a7451	-0.041614834
53	0x3da6bc5a	0.08141394
54	0xbbc5708e	-0.0060253805
55	0xb91666fb	-0.00014343478
56	0x3b99fe68	0.004699517
57	0xbd849204	-0.06473163
58	0xbd72eca3	-0.059307706
59	0x3d6a5339	0.057208274
60	0xbb58796c	-0.0033031357
61	0x3caf8e06	0.021430027
62	0xbd85c37f	-0.065314285
63	0x3c852332	0.016252134
64	0xbcc0fe87	-0.023558868
65	0xbd37680f	-0.044776972
66	0x3d8514d8	0.06498116
67	0x3db58425	0.08863095
68	0xbd8495bb	-0.06473871
69	0x3d365624	0.044515744
70	0x3d7e0ec4	0.0620258
71	0xbc648694	-0.013948102
72	0xbcfb34de	-0.030664857
73	0xbcbb2249	-0.022843497
74	0xbb4de858	-0.0031419005
75	0x3dc58f16	0.09646432
76	0x3daa06a3	0.08302047
77	0xbd016dfa	-0.031599022
78	0x3c9a2673	0.018817162
79	0x3c3dbc9f	0.011580615
80	0x3d14c95e	0.03632485
81	0x3d82c3f5	0.06385032
82	0xbc459f10	-0.012061849
83	0x3c15007d	0.009094355
84	0xbd87770e	-0.06614505
85	0x3db082c3	0.08618691
86	0x3d8d2aac	0.06892905
87	0x3d2a2bdf	0.041545745
88	0x3d413f38	0.04717943
89	0xbd2f1525	-0.042744774
90	0xbc8b684f	-0.017017512
91	0xbd20c65d	-0.039251674
92	0x3acfb8d5	0.0015847931
93	0x3d3c658b	0.045995276
94	0x3c64676e	0.013940675
95	0xbd250efc	-0.040297493
96	0xbd1c0a64	-0.038095847
97	0x3d03cb1b	0.03217612
98	0x3d9303d2	0.07178463
99	0xbcf79cbb	-0.030226102
100	0xbd61d711	-0.055136744
101	0x3db29912	0.08720602
102	0x3d7e5d8b	0.06210093
103	0x3d52f86c	0.051506445
104	0xbc7ad58c	-0.015309703
105	0x3da406e5	0.080091275
106	0xbd8987cf	-0.067153566
107	0x3d4ddea5	0.05026116
108	0xbd17207d	-0.036896218
109	0xbdb4995c	-0.088183135
110	0xbdaa9c17	-0.08330553
111	0x3dc174e6	0.09446125
112	0x3dbbe1f7	0.09173959
113	0xbd993ab9	-0.074819036
114	0xbd1d2d85	-0.03837349
115	0xbd4fe82a	-0.05075852
116	0xbc8e9ed8	-0.017409727
117	0x3d50c9fc	0.050973877
118	0xbd58bd1f	-0.052914735
119	0x3da5ab45	0.08089308
120	0xbd261402	-0.040546425
121	0x3d7f6b03	0.062357914
122	0xbd4bff68	-0.04980412
123	0xbd2c9065	-0.042129893
124	0x3ca2a055	0.019851843
125	0x3d754789	0.059882674
126	0x3d3b33a7	0.045703556
127	0x3cd52a99	0.026021289
128	0x3d7f56af	0.062338527
129	0x3d2a4d9a	0.041577913
130	0xbd1ac87f	-0.037788864
131	0xbc619e16	-0.013770601
132	0xbb89b37a	-0.0042023035
133	0xbcdd2829	-0.026996689
134	0xbc8b5023	-0.017005986
135	0x3d28f91f	0.041253205
136	0x3cc67fd9	0.024230884
137	0xbba91f7b	-0.0051612235
138	0x3c8ea94d	0.017414713
139	0x3d5c2535	0.05374642
140	0xbcfe3326	-0.031030249
141	0xbdbefe61	-0.09325863
142	0x3d082762	0.033240683
143	0xbdc1f071	-0.09469689
144	0x3dd07b6c	0.10179791
145	0x3ca0f6e6	0.01964898
146	0x3d99e210	0.07513821
147	0xbcef7769	-0.029231744
148	0xbd22d8ef	-0.039757665
149	0xbd1893eb	-0.03725044
150	0x3c4b5aed	0.012411815
151	0x3d99a5e4	0.07502344
152	0xbb43b11b	-0.0029860202
153	0xbd4a9b2c	-0.04946439
154	0xbd9663df	-0.07343268
155	0x3db1b0bf	0.0867629
156	0x3bc8a47c	0.0061231237
157	0x3d8624bd	0.06549976
158	0xbdae1441	-0.08499957
159	0xbcc66cb1	-0.02422175
160	0x3d224fec	0.039627
161	0x3da3d1a6	0.07998972
162	0xbc45b58a	-0.012067208
163	0x3b3e3eea	0.00290292
164	0x3d6ad2f3	0.057330083
165	0xbcafaef1	-0.021445723
166	0xbb79c893	-0.0038113936
167	0x3c23ec17	0.010005019
168	0x3b95ccc5	0.0045715296
169	0x3cc48439	0.02398883
170	0xbd204863	-0.039131533
171	0x3cba196c	0.0227172
172	0xbdb8ed71	-0.09029663
173	0xbce9e629	-0.028552132
174	0xbd930ae5	-0.07179812
175	0xbcce1711	-0.025157483
176	0x3d0aa019	0.033844087
177	0x3d5257fb	0.051353436
178	0x3ba09d2b	0.0049015484
179	0xbc2e67a8	-0.010644831
180	0xbd49c0c4	-0.0492561
181	0x3c340908	0.010988481
182	0xbd690d68	-0.05689755
183	0x3d6b4428	0.057438046
184	0x3d855351	0.06510032
185	0xbbf97471	-0.007612758
186	0x3c8e1eb3	0.017348623
187	0x3d5d0fa6	0.05397
188	0xbc3d6929	-0.011560717
189	0xbcc69333	-0.024240112
190	0x3db8525a	0.09000082
191	0xbd8afe98	-0.06786841
192	0x3d0800fb	0.03320406
193	0xbd97adac	-0.07406172
194	0xbd74358f	-0.05962139
195	0xbda1d25d	-0.07901452
196	0x3dc9715b	0.09836074
197	0x3d27c602	0.04096032
198	0x3c82c27b	0.015961876
199	0xbdba5376	-0.0909795
200	0xbd95e530	-0.07319105
201	0x3c12ea6b	0.008967022
202	0xbd346c00	-0.04404831
203	0xbd27449c	-0.040836915
204	0xbb9894cd	-0.0046564103
205	0xbc89fc2b	-0.016843876
206	0x3d71f09a	0.059067346
207	0x3dcb7b42	0.09935619
208	0x3b93f449	0.004515205
209	0x3d8f8634	0.07008019
210	0x3d7a37d1	0.061088387
211	0xbc09a977	-0.00840222
212	0xbd56c0db	-0.052430015
213	0x3d2662a3	0.04062141
214	0x3d0df99e	0.03466188
215	0xbd5f78e8	-0.054558665
216	0xbda55e21	-0.08074594
217	0x3ce6c14b	0.028168341
218	0xbc4dc37f	-0.012558817
219	0x3d664687	0.056219604
220	0x3d439b03	0.047755253
221	0xbd649f48	-0.055815965
222	0x3d134aea	0.035960115
223	0xbc0ce029	-0.008598366
224	0x3da9394a	0.0826288
225	0x3d1d9061	0.03846777
226	0xbd9d2f39	-0.07675023
227	0x3ca5ba9f	0.02023059
228	0x3d9c2461	0.07624126
229	0xbd0f6fee	-0.035018854
230	0x3dabee00	0.08395004
231	0xbd90ea56	-0.07075946
232	0x3d8aeb0a	0.067831114
233	0xbcc6c9b3	-0.0242661
234	0x3d260691	0.040533606
235	0x3d128e80	0.03578043
236	0x3dae9edb	0.08526393
237	0xbc88e4c4	-0.016710646
238	0x3dc17571	0.09446228
239	0xbbaf5768	-0.005350996
240	0xbd87ab09	-0.06624419
241	0xbd53b6b8	-0.051687926
242	0xbdc68ef8	-0.09695238
243	0x3c4a308c	0.012340676
244	0x3c43e230	0.011955783
245	0xbda5052e	-0.080576286
246	0xbd99eede	-0.075162634
247	0xbd6ed84c	-0.058311746
248	0xbcf43eaa	-0.029815037
249	0x3d35f2eb	0.044421118
250	0x3d7e6226	0.06210532
251	0xbd816487	-0.06318002
252	0xbc9ad3cf	-0.018899826
253	0x3d5b9380	0.053607464
254	0x3bee2ece	0.007268763
255	0xbd4769a4	-0.04868473

model.3.weight f4 [256, 256]
0	0xbd871e9e	-0.06597637
1	0xbd06cf12	-0.03291232
2	0xbd948b0a	-0.07253082
3	0x3d71db9d	0.05904733
4	0xbdaf29c3	-0.08552887
5	0xbd2a9ce9	-0.041653547
6	0x3cd891d0	0.026436716
7	0xbd62f4ee	-0.055409364
8	0xbd84fea9	-0.06493885
9	0x3d1cd98a	0.0382934
10	0xbd077198	-0.033067316
11	0x3d5090fd	0.05091952
12	0x3d582896	0.05277308
13	0xbcf98876	-0.030460577
14	0x3c0a4064	0.0084382035
15	0xbbc135eb	-0.00589632
16	0x3d106ece	0.03526192
17	0x3ca22065	0.019790838
18	0xbda48c1d	-0.08034537
19	0xbcae1c43	-0.02125371
20	0x3b903bd0	0.0044016615
21	0x3cfd2912	0.030903373
22	0xbd5fd4f0	-0.054646432
23	0xbd335cc5	-0.043789644
24	0x3b98b6bf	0.004660457
25	0x3d743dc5	0.05962922
26	0x3d955e5d	0.07293389
27	0xbcb1d16e	-0.02170631
28	0xbdb34bed	-0.08754716
29	0xb9f1603b	-0.000460388
30	0xbd48c1ab	-0.04901282
31	0xbd068c8b	-0.032848876
32	0xbcb539a2	-0.022122208
33	0xbcd11179	-0.025521027
34	0x3d0a362d	0.033743072
35	0x3d681c23	0.05666746
36	0xbd34f4fc	-0.044178948
37	0x3c63f36b	0.013913016
38	0xbcb6b838	-0.02230464
39	0x3cc8d4af	0.024515478
40	0x3ac12831	0.0014736709
41	0xbc96aa45	-0.018391738
42	0xbc67acba	-0.014140302
43	0xbc4501de	-0.012024371
44	0xbc367742	-0.011136832
45	0xbd082bfa	-0.033245064
46	0x3d436adf	0.047709342
47	0x3bcf1045	0.006319078
48	0xbcace0e0	-0.021103323
49	0xbc5bdf33	-0.013419914
50	0x3c4cf505	0.012509589
51	0xbca347ab	-0.019931635
52	0xbd1e2385	-0.038608093
53	0x3dd95a21	0.10612894
54	0x3c05be7c	0.008163091
55	0xbce14f35	-0.02750359
56	0xbad590f5	-0.0016293811
57	0xbd5a3ffb	-0.053283673
58	0xbb738ec5	-0.0037163955
59	0xbb7f57fe	-0.003896236
60	0xbc8bef4d	-0.017081881
61	0xbda605db	-0.081065856
62	0xbd348186	-0.044068836
63	0xbbfb4ead	-0.007669291
64	0xbd76ac3a	-0.06022284
65	0xbcad1ede	-0.021132883
66	0x3bc710f6	0.00607502
67	0x3cd8fdd2	0.026488218
68	0xbd1320fd	-0.035920132
69	0xbd89eb82	-0.06734373
70	0x3c75ea15	0.015009423
71	0xbccb25e5	-0.024798343
72	0x3d231034	0.039810374
73	0xbceebc7e	-0.029142614
74	0x3d818b99	0.06325454
75	0x3cc8fbc2	0.02453411
76	0x3da1ff4b	0.079100214
77	0xbc750468	-0.014954664
78	0xbd8e91da	-0.06961413
79	0xbd0e659f	-0.034764882
80	0xbcac2457	-0.021013422
81	0x3b237b7f	0.0024945436
82	0x3d52f854	0.051506355
83	0xbbb9ebe0	-0.0056738704
84	0xbc5517e8	-0.013006188
85	0x3c8106a9	0.015750246
86	0x3d0606c2	0.03272129
87	0x3bb1309e	0.005407407
88	0x3cb4a1a3	0.02204973
89	0xbc22efae	-0.009944839
90	0xbc49f8cf	-0.012327387
91	0xbc5dde13	-0.013541716
92	0x3d158ea9	0.036513004
93	0x3d818852	0.06324829
94	0x3d81b92c	0.06334147
95	0xbbe1041d	-0.0068669454
96	0x3c13edff	0.009028911
97	0x3ab84c8e	0.0014060901
98	0x3d7f2a3b	0.062296133
99	0xbcaa3f0d	-0.020782018
100	0xbd72914f	-0.05922061
101	0xbb850c8a	-0.0040603327
102	0x3c35e11f	0.011101036
103	0xbc319bb6	-0.010840347
104	0x3d5e801a	0.054321386
105	0xbd20ad43	-0.039227735
106	0x3d89ea04	0.06734088
107	0xbd41f30b	-0.047350924
108	0xbd1c60b9	-0.03817818
109	0x3c4c055d	0.012452451
110	0xbd995e3a	-0.074886754
111	0xbd756536	-0.059910975
112	0x3d458ccd	0.04822998
113	0xbc82fc21	-0.015989365
114	0xbd3a15c5	-0.045430917
115	0x3c300869	0.010744193
116	0x3a9ff406	0.0012203462
117	0x3cf35e02	0.029707912
118	0xbd3c5c07	-0.0459862
119	0x3d17856a	0.036992468
120	0x3d42ada5	0.04752888
121	0x3d22705e	0.039657943
122	0xbd0c60ac	-0.03427188
123	0x3d15652f	0.03647345
124	0x3c9ad8fc	0.018902294
125	0x3c5aef9c	0.013362791
126	0x3b923f8f	0.004463143
127	0x3d8169d4	0.06319013
128	0xbcda6691	-0.026660236
129	0x3d4f8509	0.05066398
130	0xbce7ce4f	-0.028296618
131	0xbc928c6f	-0.01788923
132	0x3d51fbe1	0.0512656
133	0xbc095050	-0.008380964
134	0x3d2aa003	0.041656505
135	0xbc89e80f	-0.016834287
136	0xbd514ef4	-0.051100686
137	0xbcd767bb	-0.02629458
138	0xbd18dfbc	-0.037322745
139	0xbce86b50	-0.028371483
140	0x3dfb6a1b	0.122760974
141	0x3c8827b2	0.01662049
142	0x3d1ff82c	0.039055035
143	0xbd7e0dcc	-0.062024876
144	0x3d30642a	0.043064274
145	0x3cef25f6	0.029192906
146	0x3d93b828	0.072128594
147	0x3c4993b2	0.01230328
148	0xbd1330c1	-0.035935167
149	0x3d03be6f	0.032164034
150	0xbd034557	-0.03204855
151	0xbc939636	-0.018015962
152	0x3c1a5ca9	0.009421506
153	0xbd4bbf27	-0.049742844
154	0xbba90c43	-0.0051589324
155	0xbcee9e5f	-0.029128252
156	0xbd30a811	-0.04312903
157	0x3c3ad3a5	0.011402999
158	0x3cabed8c	0.020987295
159	0xbd3cb65c	-0.04607235
160	0xbd2531a0	-0.04033053
161	0xbd479d4f	-0.048734006
162	0xbd5e81a5	-0.054322857
163	0xbd0f5928	-0.034997135
164	0x3cb7af13	0.02242235
165	0xbd46995d	-0.048486102
166	0xbd1a7077	-0.03770491
167	0xbd04be09	-0.032407794
168	0x3d1c13d5	0.03810485
169	0x3cba3219	0.022728967
170	0x3d88a873	0.06672754
171	0x3d7670bd	0.06016611
172	0x3cc55110	0.024086505
173	0x3c069ff2	0.008216845
174	0xbd7b46bb	-0.06134675
175	0x3d7458cf	0.059655007
176	0x3d1f19b4	0.03884287
177	0x3d348f48	0.044081956
178	0x3c7fc43b	0.01561075
179	0xbda23b90	-0.07921517
180	0x3c086059	0.008323752
181	0x3c95f978	0.018307433
182	0xbc5133dc	-0.012768712
183	0xbc198611	-0.009370343
184	0x3cf6cc49	0.030126708
185	0x3d5e49ea	0.05426971
186	0xbccecbe1	-0.025243701
187	0xbc787a96	-0.0151659455
188	0xbc2dd075	-0.010608782
189	0x3cf27128	0.029594973
190	0x3d11e632	0.035619922
191	0xbdd168a2	-0.10225035
192	0x3d8d9f8c	0.06915197
193	0x3d284580	0.041081905
194	0xbd25e283	-0.04049922
195	0x3d803f0d	0.06262026
196	0x3d556f10	0.05210787
197	0x3da75869	0.0817116
198	0x3bccd31a	0.006250751
199	0xbd91ed7d	-0.071253754
200	0xbd25d9a8	-0.040490776
201	0x3d4f32b8	0.05058548
202	0xbb38d4ab	-0.0028202932
203	0x3d51ce53	0.051222157
204	0xbd28f9cb	-0.041253846
205	0xbbd804e4	-0.00659238
206	0x3dd96aa9	0.10616047
207	0x3d0b907d	0.03407334
208	0xbc07d0ee	-0.008289559
209	0xbb3d0417	-0.002884155
210	0xbd21a2ee	-0.039462022
211	0xbd5711f1	-0.052507345
212	0xbd5db3a0	-0.054126382
213	0x3cb6b19e	0.022301491
214	0xbcca505b	-0.02469652
215	0xbc87b3ea	-0.016565282
216	0x3b906cf8	0.0044075213
217	0xbd35edcb	-0.04441623
218	0x3d93ff11	0.072263844
219	0x3d2a6bb0	0.041606605
220	0xbd4da2c9	-0.050204072
221	0xbd71568d	-0.058920432
222	0x3d1eaa05	0.038736362
223	0x3ceefc88	0.02917315
224	0xbd15a611	-0.036535326
225	0xbbb27261	-0.005445764
226	0x3a47659a	0.00076063874
227	0xbd1b27ec	-0.03787987
228	0x3ce03b39	0.02737199
229	0x3d76c8aa	0.060249962
230	0x3d944531	0.0723976
231	0x3b3c6b13	0.0028750345
232	0x3d97bae8	0.074086964
233	0xbd4b8054	-0.04968293
234	0xbd8b6dd5	-0.06808058
235	0x3d2ca7bd	0.042152155
236	0x3d852e39	0.06502957
237	0xbd31eaa1	-0.04343665
238	0x3ce69508	0.028147236
239	0xbd842b52	-0.06453575
240	0x3d2d29e9	0.042276297
241	0xbdb803db	-0.0898511
242	0xbd858cfc	-0.06521031
243	0xba3425b1	-0.00068720715
244	0x3c9a7758	0.018855736
245	0x3d853eea	0.065061405
246	0xbceb2dfb	-0.028708449
247	0xbcdca50b	-0.026934167
248	0x3d64fb04	0.05590345
249	0x3cacb85e	0.021084007
250	0xbd3f42b1	-0.04669446
251	0x3d5e7d76	0.054318868
252	0xbd72036b	-0.05908529
253	0xbd2989f4	-0.041391328
254	0x3d314940	0.043282747
255	0xbd14d5c4	-0.036336675

model.3.bias f4 [256]
0	0x3d8da687	0.06916528
1	0xbd34db98	-0.044154733
2	0x3d125dba	0.035733916
3	0x3cba5b79	0.022748696
4	0x3d8707b1	0.06593264
5	0x3c96ba29	0.018399315
6	0x3c9cc433	0.019136524
7	0x3d857ff5	0.065185465
8	0x3d733349	0.05937508
9	0xbcc0bb8a	-0.023526926
10	0xbd2e7c4d	-0.04259901
11	0x3d049d22	0.032376416
12	0x3bc9d57f	0.006159484
13	0xbd4230ae	-0.047409706
14	0xbc4c3d45	-0.01246578
15	0xbd34aab7	-0.04410812
16	0xbc99dd26	-0.01878221
17	0xba1de90d	-0.0006023802
18	0xbd4117ef	-0.047141965
19	0x3b32fd77	0.0027311721
20	0x3d691a0e	0.056909613
21	0xbd22cb29	-0.03974453
22	0x3d003280	0.03129816
23	0xbd4ecf0b	-0.05049042
24	0xbc7b1445	-0.015324657
25	0x3c69790a	0.014250049
26	0xbc52fa36	-0.012877038
27	0x3c73f003	0.014888766
28	0x3cc58a56	0.024113815
29	0x3d10095c	0.035165176
30	0x3cdbd0f2	0.026833031
31	0x3d8f39d0	0.06993449
32	0x3c37d3c9	0.011219927
33	0xbd8bef4a	-0.0683275
34	0x3d9afc40	0.07567644
35	0x3cd218f8	0.025646672
36	0xbd1fd21d	-0.03901874
37	0x3d9083bf	0.070563786
38	0xbd0f5500	-0.03499317
39	0x3d56a914	0.05240734
40	0xbce817c7	-0.02833165
41	0xbcebee1a	-0.02880006
42	0xb93bbbd5	-0.00017903683
43	0xbaa42d46	-0.00125257
44	0x3b96aade	0.0045980057
45	0x3c103ad0	0.0088030845
46	0x3c27bdb6	0.010238102
47	0xbc2faf1e	-0.010722904
48	0x3d9cbe05	0.07653431
49	0xbcda16cf	-0.026622204
50	0xbbaad42b	-0.0052132807
51	0xbbbd4f48	-0.0057772733
52	0x3c3d39c3	0.011549416
53	0x3d082276	0.03323599
54	0x3d2f066e	0.04273074
55	0xbcdac1e1	-0.026703777
56	0xbcb26d55	-0.02178065
57	0x3d1ec3e2	0.038761027
58	0xbb6e0d1a	-0.0036323727
59	0xbbac9427	-0.0052666846
60	0xbd65ccc8	-0.056103498
61	0xbc3dedef	-0.011592372
62	0x3d482df8	0.048871964
63	0xbcf537e8	-0.029933885
64	0x3d71e904	0.05906011
65	0xbc041a0a	-0.008062849
66	0x3c4d5a6d	0.012533766
67	0x3d235c81	0.03988314
68	0x3c69c4ed	0.014268142
69	0x3d007c16	0.031368338
70	0x3d1aacfc	0.037762627
71	0xbd5d40a2	-0.054016717
72	0xbd264b63	-0.040599238
73	0x3b246975	0.0025087271
74	0x3d98e451	0.07465423
75	0x3c3beebf	0.011470496
76	0xbd01c9e5	-0.031686682
77	0xbb5365b5	-0.0032256667
78	0xbb5ab063	-0.0033369295
79	0xbcbbb25e	-0.0229122
80	0x3d8aa403	0.06769564
81	0xbd82b004	-0.063812286
82	0xbc28460f	-0.0102706095
83	0xbcd521bb	-0.02601706
84	0xbd7ec79f	-0.062202092
85	0xbd693fee	-0.056945734
86	0x3d1414fe	0.036152832
87	0xbd6e101b	-0.058120828
88	0xbb0046d8	-0.0019573476
89	0xbd4e4670	-0.050360143
90	0x3b8e5f8f	0.0043448876
91	0x3c425181	0.011860252
92	0xbd0924ed	-0.03348248
93	0xbd26dfcb	-0.04074077
94	0x3cdc346c	0.026880465
95	0x3d050990	0.032479823
96	0x3d90f15f	0.07077288
97	0x3d76acc7	0.060223367
98	0xbcd4d24b	-0.025979182
99	0xbd2c9844	-0.0421374
100	0xb9c1ef7a	-0.00036990253
101	0x3d604235	0.05475064
102	0xbd4e60f1	-0.05038542
103	0xbd53c051	-0.05169708
104	0x3daebc8d	0.08532057
105	0x3cd5b68a	0.026088018
106	0xbcf9f251	-0.030511053
107	0x3d797ac8	0.06090811
108	0x3ceeadd1	0.029135616
109	0x3d30db9d	0.04317819
110	0x3d89efd1	0.067351945
111	0x3d666367	0.05624714
112	0x3d9c9cc8	0.07647091
113	0xbc4f75ff	-0.01266241
114	0x3da592a7	0.08084612
115	0xbcc3ccfe	-0.023901459
116	0x3d781554	0.060567215
117	0x3b1a3d4c	0.002353507
118	0x3c816f81	0.01580024
119	0xbc47648e	-0.01216997
120	0x3d8596a8	0.06522876
121	0xbcdf4964	-0.027256675
122	0x3d146275	0.03622671
123	0x3d1d7ade	0.038447253
124	0x3daa9b16	0.083303615
125	0x3cb3feef	0.021972148
126	0x3d7d27a6	0.06180539
127	0x3d08aa67	0.033365633
128	0xbc99a46b	-0.018755158
129	0x3cf16f91	0.029472144
130	0x3c94ac67	0.018148614
131	0x3d8e285a	0.0694129
132	0xbbfd1443	-0.0077233627
133	0x3d1ec6bc	0.038763747
134	0xbd6e77bd	-0.05821966
135	0x3ccdf154	0.025139488
136	0xbcb38a4a	-0.021916527
137	0x3c4017af	0.011724397
138	0xbc8e5695	-0.01737527
139	0x3d1e5096	0.03865107
140	0xbbe03592	-0.0068423236
141	0xbd579772	-0.052634664
142	0xbc810c39	-0.015752899
143	0x3cc8f7cb	0.02453222
144	0x3d8d43c0	0.06897688
145	0xbd1e1987	-0.038598564
146	0x3cef865a	0.029238869
147	0x3d9a635a	0.07538481
148	0x3d8b6972	0.068072215
149	0x3d37c313	0.04486377
150	0x3db3bf94	0.08776775
151	0x3b17d7ff	0.0023169515
152	0xbd36b754	-0.04460843
153	0x3d123d33	0.035702895
154	0x3dbb2c57	0.091393165
155	0x3ca928e4	0.020649381
156	0x3c82092e	0.015873518
157	0xbd5f841d	-0.054569352
158	0x3d3bdc37	0.04586431
159	0x3cb42a3d	0.021992797
160	0x3dbcfe09	0.09228141
161	0x3c7a9b77	0.015295855
162	0x3c0fd5b6	0.00877898
163	0xbbf03b81	-0.007331312
164	0x3d1ed5e1	0.03877819
165	0xbcd2e3c1	-0.025743367
166	0xbc2e080e	-0.010622038
167	0xbcebc1eb	-0.02877899
168	0xbc70559c	-0.014668848
169	0xbd830aa0	-0.06398511
170	0xbd57378f	-0.05254322
171	0xbd24c751	-0.040229145
172	0xbd366c0e	-0.044536643
173	0x3d8a7a1b	0.06761571
174	0xbd04ef09	-0.032454524
175	0x3d1748c2	0.03693462
176	0xbc47629d	-0.012169507
177	0x3d0e54b2	0.03474874
178	0x3d8be000	0.06829834
179	0x3d8c5d5b	0.06853744
180	0xbced6a03	-0.028981214
181	0x3cb91b2e	0.022595968
182	0x3cda6866	0.02666111
183	0x3c822043	0.015884524
184	0xbc171b9e	-0.009222893
185	0x3ca38918	0.019962832
186	0x3d50f344	0.051013246
187	0xbc7c2279	-0.015389078
188	0x3d7dd966	0.061974905
189	0x3d0fdb1f	0.03512108
190	0xbd3e6b63	-0.04648913
191	0xbcf66dc4	-0.030081637
192	0xbd031b4b	-0.03200845
193	0x3d653d69	0.05596677
194	0x3d9e4c92	0.077294484
195	0xbd90ba87	-0.07066827
196	0x3d41341d	0.04716884
197	0x3d02dbfb	0.03194807
198	0xbd12fb10	-0.035883963
199	0x3d9c91a1	0.07644964
200	0x3d76f67c	0.06029366
201	0x3bc5c19e	0.006035044
202	0x3d7a2856	0.061073624
203	0x3d0467b2	0.032325454
204	0x3d99376d	0.07481275
205	0x3d125590	0.03572613
206	0xbcfe902a	-0.031074602
207	0x3da0dd5b	0.0785472
208	0xbcbaf0b4	-0.022819854
209	0x3bc6902c	0.006059667
210	0xbd072987	-0.032998588
211	0x3cb41283	0.021981483
212	0x3d91c3f7	0.071174555
213	0xbc0fc3bb	-0.008774693
214	0xbd18bead	-0.037291218
215	0xbd345556	-0.044026695
216	0x3cc41771	0.023936959
217	0x3cb03196	0.02150802
218	0x3d450fde	0.048110835
219	0x3dc1271d	0.094312884
220	0x3cd21107	0.025642885
221	0x3d7e3e51	0.06207115
222	0xbc6228b6	-0.013803652
223	0x3d781b52	0.06057293
224	0x3d333c34	0.043758586
225	0xbb0391f5	-0.002007601
226	0xbd2fe97d	-0.04294728
227	0x3d1147c4	0.03546883
228	0xbc4f2005	-0.012641911
229	0xbc8e5bf8	-0.017377838
230	0x3dc2e2b4	0.095158964
231	0xbd503010	-0.050827086
232	0x3c79f5ed	0.015256387
233	0xbd3b3c8f	-0.04571205
234	0xbd6eee8c	-0.058332965
235	0x3d8bcb59	0.06825895
236	0xbbcdba24	-0.006278293
237	0xbd8e04df	-0.06934523
238	0x3d46963c	0.04848312
239	0x3d402fc5	0.046920557
240	0x3d2c0677	0.041998353
241	0xbcb396a6	-0.02192242
242	0xbc89ef8f	-0.016837863
243	0x3db4cf81	0.08828641
244	0x3bd34269	0.0064471257
245	0x3d007e07	0.03137019
246	0x3db1f44d	0.08689175
247	0x3b62eaae	0.0034624743
248	0x3dad8a5f	0.08473658
249	0xbd2146c1	-0.039374117
250	0x3d45c101	0.048279766
251	0x3c9549df	0.018223701
252	0xbcf0ac63	-0.029379075
253	0xbc23b00a	-0.009990701
254	0xbd53d7eb	-0.051719587
255	0xbc75a43a	-0.014992768
