models/ckpt_15.pth (torch, 772283 bytes, 14 tensors)

model.0.weight f4 [64, 37]
0.01884108 0.15369678 -0.19140804 -0.10914199 -0.008317744 0.08411994 0.047320507 0.09725088
0.12439179 -0.09203307 -0.021240257 0.0073716664 -0.14091901 -0.12173225 -0.023447914 0.12174584
0.04975314 0.11105564 -0.12911564 0.031353354 0.0870155 0.13839498 -0.04925593 0.16924265
0.022605695 -0.030321168 0.25219497 -0.103514045 0.005931761 -0.021114381 -0.02752004 0.18991734
-0.1681239 -0.03497098 -0.05695367 -0.09317282 -0.085804254 0.19268133 0.056113146 0.06493612
-0.017941944 -0.1166235 0.0370142 -0.17034414 -0.12251773 -0.15250707 -0.117332235 0.15773357
-0.10118166 -0.02805759 0.07128808 0.17737162 0.07667895 0.008643009 0.10177535 -0.053052362
0.06459144 -0.015623713 -0.19244973 -0.1473481 0.03232156 0.16871423 -0.08570227 0.0077778376
0.077528685 0.08330631 0.14285815 0.0125941755 0.12195045 0.15110491 0.0022539366 0.24126142
0.020783406 0.102712385 0.0949377 0.11430623 0.08591244 -0.12895186 0.00061556685 -0.17708157
-0.17203051 0.2016165 0.012148141 -0.1385523 0.059805583 -0.05007273 -0.0548061 -0.071307324
0.07314272 -0.14900592 0.075689204 -0.017509729 0.11474857 0.13531215 -0.35406914 -0.150094
0.15385737 0.044230707 -0.15446343 -0.1772325 0.13959646 0.16940424 -0.16100384 -0.02553428
-0.20869558 -0.036669917 -0.14778326 -0.07111646 -0.06098068 0.004214201 -0.036052573 0.18687151
-0.04698348 0.16154452 0.102622844 -0.05715991 0.0140553005 0.0019243779 0.019247187 0.2673007
0.36713922 0.030816263 -0.052178603 0.08450984 -0.060269747 -0.0944441 0.0057528387 -0.025569087
-0.036151707 -0.1600987 -0.016522406 0.07854031 -0.054124158 0.011268596 0.100274794 -0.0596288
0.04007988 0.025979882 0.05388746 0.15038435 0.1752815 0.13457814 0.18456444 0.08420659
-0.17062898 -0.23676898 0.08756988 0.022750946 -0.073857225 -0.108836494 -0.1445717 -0.13928543
-0.024536422 0.13219303 -0.04581086 -0.23986682 -0.05212668 -0.60758233 -0.020414865 -0.035942443
-0.019288246 -0.036671393 -0.10814724 -0.15424226 -0.020372776 0.0022332165 -0.047846697 0.07042889
-0.15641083 0.0020577128 0.1278957 0.008430454 0.23741612 0.025402628 -0.08149939 0.113781564
0.037575617 -0.0645642 0.13687879 -0.07920045 0.013966419 -0.02078715 0.118007034 0.046122972
0.06833847 0.05642996 -0.03566219 -0.060462315 -0.13395247 0.054323647 0.17938164 -0.05704373
-0.2598172 -0.047020692 -0.55704564 -0.081893526 -0.08498814 0.03660534 -0.12403308 0.03563111
0.00743646 0.055101432 -0.1327341 -0.09518085 -0.17833959 0.10094453 -0.062311046 0.10317039
0.079662085 0.036870033 -0.011659935 -0.019032229 -0.018320976 -0.014174714 -0.06799864 0.016049804
-0.13179938 -0.05672241 0.071137235 -0.15343748 0.030152278 0.13949001 0.11731702 -0.068737514
-0.046857696 0.06806591 -0.07355146 0.00092557137 -0.06354318 -0.019304866 -0.028110174 0.060255483
-0.04558895 0.27504766 0.07303351 -0.16270271 -0.032454416 -0.0803372 -0.13530372 0.110508025
0.10416226 0.11948735 -0.17212397 0.09738586 0.11435618 -0.1028578 0.009445255 -0.21701546
0.011100972 0.053802 -0.0030599067 0.009435604 0.0041317814 0.059422463 0.018833932 -0.16765276
00000000: 9c58 9a3c b062 1d3e 7800 44be d685 dfbd
00000010: 2647 08bc 1347 ac3d 26d3 413d 782b c73d
00000020: 1fc1 fe3d d67b bcbd 0c00 aebc 058e f13b
00000030: 134d 10be c24e f9bd d715 c0bc e255 f93d
00000040: f3c9 4b3d 2471 e33d e436 04be 606c 003d
00000050: 2f35 b23d 6ab7 0d3e 96c0 49bd f24d 2d3e
00000060: 942f b93c 1964 f8bc b31f 813e 2cff d3bd
00000070: 385f c23b 11f8 acbc b571 e1bc b179 423e
00000080: ac28 2cbe bb3d 0fbd 4048 69bd 64d1 bebd
00000090: 24ba afbd 414e 453e e6d6 653d 3afd 843d
000000a0: fcfa 92bc 4dd8 eebd 349c 173d b26e 2ebe
000000b0: 93ea fabd d02a 1cbe e24b f0bd e984 213e
000000c0: 5538 cfbd 08d9 e5bc 7cff 913d e8a0 353e
000000d0: da09 9d3d 689b 0d3c 986f d03d 6f4d 59bd
000000e0: 8448 843d 9afa 7fbc 8b11 45be 6ce2 16be
000000f0: 9d63 043d 6cc3 2c3e ac84 afbd 3bdd fe3b
00000100: 5cc7 9e3d 809c aa3d 6849 123e cd57 4e3c
00000110: 28c1 f93d 3fbb 1a3e c8b6 133b 3c0d 773e
00000120: f641 aa3c df5a d23d b26e c23d 6219 ea3d
00000130: ddf2 af3d f50b 04be fe5d 213a df54 35be
00000140: c428 30be 8e74 4e3e ff08 473c a7e0 0dbe
00000150: b3f6 743d 1019 4dbd 5c7c 60bd 9309 92bd
00000160: dacb 953d 0295 18be f102 9b3d 9070 8fbc
00000170: 4c01 eb3d 458f 0a3e 8d48 b5be 3eb2 19be
00000180: c98c 1d3e 422b 353d a92b 1ebe 707c 35be
00000190: 60f2 0e3e 4e78 2d3e 31de 24be 442d d1bc
000001a0: 4bb4 55be 3233 16bd 7f54 17be 82a5 91bd
000001b0: e1c6 79bd 4817 8a3b ddab 13bd 3f5b 3f3e
000001c0: c071 40bd ed6b 253e ed2b d23d 8320 6abd
000001d0: 3448 663c 683b fc3a 47ac 9d3c a3db 883e
000001e0: acf9 bb3e 6372 fc3c 3bb9 55bd 7f13 ad3d
000001f0: 69dd 76bd e96b c1bd 4f82 bc3b 4376 d1bc
00000200: d013 14bd eaf0 23be ff59 87bc bed9 a03d
00000210: 4bb1 5dbd eb9f 383c df5c cd3d 543d 74bd
00000220: cd2a 243d c3d3 d43c 19b9 5c3d 5bfe 193e
00000230: fe7c 333e dace 093e 76fe 3c3e 8174 ac3d
00000240: 5db9 2ebe 9173 72be d657 b33d 3160 ba3c
00000250: 7542 97bd abe5 debd 9b0a 14be d7a0 0ebe
00000260: 9b00 c9bc 9c5d 073e 2ba4 3bbd a69f 75be
00000270: c982 55bd 848a 1bbf 133d a7bc 6238 13bd
00000280: 6202 9ebc be34 16bd 4d7c ddbd aff1 1dbe
00000290: cfe4 a6bc 285b 123b e6fa 43bd 063d 903d
000002a0: 292a 20be b1da 063b 17f7 023e e31f 0a3c
000002b0: 361d 733e 2c19 d03c 27e9 a6bd 4f06 e93d
000002c0: e4e8 193d 3c3a 84bd f429 0c3e d833 a2bd
000002d0: 68d3 643c d049 aabc acad f13d 71eb 3c3d
000002e0: 0af5 8b3d 1a23 673d 8412 12bd 55a7 77bd
000002f0: d62a 09be 7982 5e3d d2af 373e b0a6 69bd
00000300: c306 85be c598 40bd 8b9a 0ebf cbb7 a7bd
00000310: 430e aebd 7bef 153d 0e05 febd edf1 113d
00000320: 8cad f33b 0ab2 613d 73eb 07be 2dee c2bd
00000330: a79e 36be 01bc ce3d de39 7fbd ff4a d33d
00000340: e025 a33d 0805 173d 5009 3fbc 7ae9 9bbc
00000350: df15 96bc 0f3d 68bc df42 8bbd e17a 833c
00000360: 6bf6 06be c255 68bd 66b0 913d b71e 1dbe
00000370: e901 f73c 78d6 0e3e e843 f03d 41c6 8cbd
00000380: dbed 3fbd 2466 8b3d 26a2 96bd 0ba2 723a
00000390: ed22 82bd 3d25 9ebc 4f47 e6bc 74ce 763d
000003a0: 7bbb 3abd 0cd3 8c3e 9892 953d 8a9b 26be
000003b0: ecee 04bd d487 a4bd 0f8d 0abe 0852 e23d
000003c0: 0653 d53d c9b5 f43d 4441 30be 3d72 c73d
000003d0: 9333 ea3d 1ca7 d2bd 45c0 1a3c 4d39 5ebe
000003e0: dae0 353c 7c5f 5c3d b788 48bb cb97 1a3c
000003f0: e563 873b f864 733d 9e49 9a3c 2aad 2bbe

model.0.bias f4 [64]
0.16801155 -0.005740493 -0.13081048 -0.044236585 0.17048727 -0.023919202 -0.054270446 0.07311331
0.021758096 -0.12248401 0.13584751 0.11959252 0.13605848 0.10314393 -0.01746681 -0.07896891
0.06650945 0.010522715 0.031489126 -0.15312406 -0.064536214 0.07251507 0.009776701 -0.114615045
-0.11767015 0.15282488 0.022657024 -0.101045884 0.18179803 0.112331584 -0.07872831 -0.16732025
0.16079168 -0.01014471 -0.1197968 0.10965624 -0.030817205 0.023897309 -0.09264702 -0.12220211
-0.09992647 0.016687548 -0.11289941 0.17602617 -0.024679858 -0.029074898 0.057356287 -0.1392064
-0.07839029 0.10288207 -0.12705399 0.103750825 0.012602295 -0.09031956 -0.11724742 0.034447
0.07845365 0.0019515627 -0.11394211 -0.07929103 0.046956666 0.035841495 0.060795676 0.023240985
00000000: 380b 2c3e bf1a bcbb 2ff3 05be 6c31 35bd
00000010: 3794 2e3e 34f2 c3bc b04a 5ebd 6ebc 953d
00000020: 093e b23c e6d8 fabd 9c1b 0b3e ecec f43d
00000030: ea52 0b3e 203d d33d 8e16 8fbc 74ba a1bd
00000040: 1b36 883d 7767 2c3c befa 003d 8ecc 1cbe
00000050: 902b 84bd c882 943d 752e 203c 4bbb eabd
00000060: 0cfd f0bd 207e 1c3e 399b b93c 25f1 cebd
00000070: 4329 3a3e 1a0e e63d 4f3c a1bd 0056 2bbe
00000080: 93a6 243e ff35 26bc 0658 f5bd 7393 e03d
00000090: 5d74 fcbc 4ac4 c33c b9bd bdbd 1a45 fabd
000000a0: 40a6 ccbd 53b4 883c ce37 e7bd 3440 343e
000000b0: 6a2d cabc 7b2e eebc 6dee 6a3d 1f8c 0ebe
000000c0: 178b a0bd d6b3 d23d 711a 02be 507b d43d
000000d0: db79 4e3c 76f9 b8bd 6a1f f0bd 4c18 0d3d
000000e0: 4fac a03d 94cb ff3a 7b5a e9bd 5663 a2bd
000000f0: a255 403d 88ce 123d e304 793d e163 be3c

model.1.weight f4 [128, 64]
0.022614058 0.008682161 0.13383673 0.07534298 0.16296872 -0.059995346 0.010504584 -0.032525256
0.038275648 0.069197275 -0.01349099 -0.07578798 -0.1356713 0.098788634 -0.014893832 -0.024169698
-0.075809345 -0.13532047 0.03468318 0.055555347 -0.07771685 -0.056253742 0.13555804 -0.071230136
-0.11777804 0.037875406 0.13076006 0.038212746 0.06253761 0.020479623 0.02636784 -0.050062053
-0.07769633 0.008042387 0.021473248 0.021848617 -0.06041969 0.12083816 0.041784085 -0.092157945
-0.10519288 -0.026695337 0.10352721 -0.075535126 0.14112976 -0.018453408 -0.13107918 0.029616129
-0.08023465 0.0057877926 -0.052996464 0.030185184 -0.15237783 -0.055468746 0.058447886 -0.006816247
-0.1422296 0.016856857 -0.1535732 0.03179664 0.094587415 0.08476667 -0.17637078 -0.028523328
0.12110421 0.11560535 -0.08480366 0.08341733 0.06196368 0.0729204 0.001638331 0.109587684
-0.057046 -0.08317807 0.018100528 0.11580541 -0.035888642 0.05972459 0.027134337 0.09132888
0.1275392 0.029909333 -0.1064982 0.046980105 0.022602655 -0.07944623 0.02361102 -0.10633944
-0.03384076 0.044576958 -0.10438569 -0.12118759 0.06346583 -0.10153269 0.08823307 -0.052914504
-0.013280359 -0.029621087 0.10249978 -0.082624905 0.076026425 0.024656694 0.1367549 -0.109496355
-0.08718534 0.05384684 -0.020528005 -0.09432056 -0.09419669 -0.085586935 -0.09629433 -0.050432242
-0.08943138 -0.10062584 -0.010371309 0.07707031 -0.061447177 0.062200207 0.064250275 0.04493588
-0.08591763 0.061197292 0.1189212 0.108874105 -0.12379485 -0.046226304 0.030231787 -0.047589585
-0.10673013 -0.08939486 0.10174159 0.06717952 0.014687167 0.08122646 -0.08923709 0.01230239
0.12565514 -0.069784746 0.038403787 0.039129395 0.054272015 0.07134139 0.003732631 0.007519757
-0.10278024 0.08810806 0.09206337 -0.05975459 -0.15624973 0.07617725 -0.093860075 0.0049364297
0.020054618 0.07422202 0.18697624 0.0963922 -0.066303626 0.17243403 0.029600633 -0.002036392
-0.066904925 -0.038243186 -0.09976308 0.06653092 0.13982686 0.13096686 0.100322984 0.062325053
0.12028764 -0.041313052 -0.01069569 -0.06341797 -0.028490182 0.031442992 0.08200399 -0.04089566
0.037708186 -0.11807672 -0.08271562 0.018751994 -0.13336222 0.047671624 -0.17365448 -0.0035199123
-0.010679704 -0.10378797 0.09810894 0.10508076 -0.009407785 0.06157879 0.08003324 0.0414357
-0.05336788 -0.15204506 0.08890876 -0.067812905 -0.024623005 -0.022116836 0.0005432345 -0.069043495
-0.10525588 0.0037685768 0.009145193 0.100400135 -0.023904648 0.12904453 0.09992261 -0.05152578
-0.05413516 -0.03624177 -0.008666262 -0.03942694 -0.01841409 0.06610246 -0.052105904 0.07117578
-0.046980567 -0.0022085742 0.078752905 0.03183946 0.07682703 -0.17626095 0.031424 -0.058070067
-0.037081312 -0.06035625 0.070993505 0.08730012 -0.077823155 0.049357317 0.13178441 0.06931705
0.04080485 0.04740821 -0.0005055995 -0.14416969 -0.022121897 0.074227 0.024100998 -0.0458837
0.100812845 -0.034624793 -0.12593117 0.058750443 -0.018721212 -0.0014886509 -0.018554412 0.11366805
-0.1107037 -0.002474455 -0.12137671 0.16806063 -0.066426456 0.025811093 -0.025576286 -0.01439308
00000000: 1e41 b93c 9f3f 0e3c 7f0c 093e 6c4d 9a3d
00000010: 46e1 263e aebd 75bd 6b1b 2c3c 3439 05bd
00000020: edc6 1c3d 4db7 8d3d 5009 5dbc ba36 9bbd
00000030: 6bed 0abe b251 ca3d 4205 74bc 88ff c5bc
00000040: ee41 9bbd 7391 0abe f30f 0e3d 018e 633d
00000050: 032a 9fbd 536a 66bd bacf 0a3e 1be1 91bd
00000060: 9d35 f1bd 3e23 1b3d f7e5 053e f884 1c3d
00000070: b813 803d e2c4 a73c 5e01 d83c de0d 4dbd
00000080: 411f 9fbd 37c4 033c aae8 af3c dffb b23c
00000090: a37a 77bd ff79 f73d ca25 2b3d 4ebd bcbd
000000a0: 5d6f d7bd 2eb0 dabc 1306 d43d 29b2 9abd
000000b0: 5284 103e 9a2b 97bc 9f39 06be 869d f23c
000000c0: 1052 a4bd 86a7 bd3b d212 59bd eb46 f73c
000000d0: ef08 1cbe 3233 63bd 0d67 6f3d d35a dfbb
000000e0: a3a4 11be 6417 8a3c 4b42 1dbe 323d 023d
000000f0: 0cb7 c13d 269a ad3d 8b9a 34be c1a9 e9bc
00000100: 7c05 f83d 7fc2 ec3d 8bad adbd b5d6 aa3d
00000110: a1cd 7d3d 4a57 953d 44bd d63a 826f e03d
00000120: 11a9 69bd 4459 aabd 8f47 943c 632b ed3d
00000130: f8ff 12bd c6a1 743d d448 de3c a30a bb3d
00000140: a399 023e 6b04 f53c ba1b dabd 366e 403d
00000150: 3429 b93c b4b4 a2bd e66b c13c 7ec8 d9bd
00000160: 9c9c 0abd 5496 363d 2ac8 d5bd 3331 f8bd
00000170: 60fa 813d 5ff0 cfbd 8ab3 b43d e1bc 58bd
00000180: dd95 59bc eca7 f2bc 68eb d13d 3f37 a9bd
00000190: beb3 9b3d d6fc c93c 7a09 0c3e a03f e0bd
000001a0: 3a8e b2bd 818e 5c3d 592a a8bc 232b c1bd
000001b0: 32ea c0bd 3448 afbd f635 c5bd 0a92 4ebd
000001c0: cd27 b7bd ec14 cebd 6cec 29bc 0ad7 9d3d
000001d0: 09b0 7bbd a5c5 7e3d a695 833d af0e 383d
000001e0: 95f5 afbd 03aa 7a3d f58c f33d 63f9 de3d
000001f0: 2888 fdbd cb57 3dbd a7a8 f73c 4ced 42bd
00000200: 5495 dabd a714 b7bd e55d d03d 6b95 893d
00000210: 71a2 703c 0f5a a63d efc1 b6bd f78f 493c
00000220: beab 003e 4eeb 8ebd 4a4d 1d3d 2546 203d
00000230: 554c 5e3d 6f1b 923d 289f 743b 4b68 f63b
00000240: 727e d2bd 0072 b43d b88b bc3d 3bc1 74bd
00000250: eeff 1fbe d102 9c3d b639 c0bd c6c1 a13b
00000260: 9549 a43c b701 983d b376 3f3e 4669 c53d
00000270: 32ca 87bd 8c92 303e 077d f23c fd74 05bb
00000280: 7305 89bd e3a4 1cbd 9650 ccbd 5d41 883d
00000290: c62e 0f3e 2d1c 063e 2376 cd3d 8e48 7f3d
000002a0: 5e59 f63d e037 29bd fa3c 2fbc 48e1 81bd
000002b0: 3e64 e9bc 5eca 003d b5f1 a73d 3582 27bd
000002c0: e673 1a3d 35d2 f1bd cf66 a9bd c89d 993c
000002d0: 1b90 08be 5243 433d 7bd2 31be 54ae 66bb
000002e0: edf9 2ebc ca8e d4bd 57ed c83d 9534 d73d
000002f0: 1c23 1abc 0b3a 7c3d 78e8 a33d 7bb8 293d
00000300: 4798 5abd b3b1 1bbe cc15 b63d 7ee1 8abd
00000310: 2fb6 c9bc 5e2e b5bc da67 0e3a ad66 8dbd
00000320: 6590 d7bd 3afa 763b b8d5 153c 969e cd3d
00000330: aed3 c3bc 4024 043e 3aa4 cc3d b20c 53bd
00000340: d4bc 5dbd 4072 14bd f0fc 0dbc 257e 21bd
00000350: 25d9 96bc ba60 873d 006d 55bd 9bc4 913d
00000360: b26e 40bd babd 10bb 3449 a13d 186a 023d
00000370: 7d57 9d3d c07d 34be 74b6 003d e1da 6dbd
00000380: 93e2 17bd 1d38 77bd 0b65 913d 68ca b23d
00000390: bf61 9fbd e62a 4a3d 7ef2 063e 19f6 8d3d
000003a0: fd22 273d 1c2f 423d 358a 04ba 38a1 13be
000003b0: fb38 b5bc 5304 983d 756f c53c 8cf0 3bbd
000003c0: f776 ce3d bad2 0dbd 1af4 00be 4ea4 703d
000003d0: 3a5d 99bc d61e c3ba 6cff 97bc cbca e83d
000003e0: 9fb8 e2bd 772a 22bb 5a94 f8bd 1618 2c3e
000003f0: 980a 88bd c971 d33c 5c85 d1bc f4d0 6bbc

model.1.bias f4 [128]
0.03197704 -0.0023574913 0.069719836 -0.06166177 0.11653606 0.10667233 0.036719557 -0.003959914
0.015168291 0.098764114 0.033573937 -0.0529017 -0.0068449867 -0.094144575 0.014931832 -0.13291304
0.017404623 0.040967207 0.1305226 -0.038453434 -0.02003427 0.0036265443 -0.053253416 -0.014067045
-0.057555623 -0.020921966 0.026390145 0.058011528 0.025079565 0.10068925 -0.028153047 0.058065437
-0.09425808 0.08601875 0.09885371 0.09232358 -0.07684998 -0.0063901395 -0.10470685 -0.09538412
0.10193494 0.049816936 0.07885524 0.09154579 0.012800987 0.041963104 -0.06900901 -0.080710195
-0.040916 -0.06715679 0.13587922 -0.111149795 0.11271901 -0.0081597725 0.021392649 0.12480786
-0.05038969 -0.0372859 0.060058895 -0.05187468 0.014943609 0.100702 0.0032101946 0.11796856
-0.008497238 0.073479086 0.01235804 -0.087204285 -0.0138705205 0.042980485 -0.07479635 0.11245433
-0.08677609 0.05618467 0.03528742 -0.060712546 0.08960592 -0.03959713 0.013843828 -0.018716136
-0.11321614 0.104003526 -0.048311926 0.09114539 0.07646571 0.06603103 0.047635455 0.055932973
-0.08489219 -0.011908424 -0.031908616 0.10347543 0.04978395 0.010931016 -0.10579377 -0.13263147
-0.08816359 0.061195657 0.08638078 -0.11320246 -0.1129426 0.12424213 0.052816622 -0.08825567
-0.013114935 0.05422806 0.046442423 0.000945789 -0.05539715 -0.050148927 -0.031487994 -0.082366794
-0.08491925 0.122470975 0.02528077 0.030871795 -0.090128206 0.047969595 0.1502542 0.09227801
-0.029060084 -0.04144037 0.12577298 -0.044850986 -0.01211818 0.01066099 -0.027587414 0.0027147373
00000000: 5bfa 023d 2480 1abb 46c9 8e3d 0d91 7cbd
00000010: 75aa ee3d 0677 da3d 3f67 163d 2bc2 81bb
00000020: 6c84 783c d744 ca3d d384 093d 74af 58bd
00000030: e94b e0bb dfce c0bd a5a4 743c 5b1a 08be
00000040: 2494 8e3c 3bcd 273d b7a7 053e 5981 1dbd
00000050: e91e a4bc 51ab 6d3b 4120 5abd 7779 66bc
00000060: 72bf 6bbd 8b64 abbc 2530 d83c 7f9d 6d3d
00000070: a973 cd3c 2a36 ce3d 38a1 e6bc 06d6 6d3d
00000080: 610a c1bd 992a b03d d073 ca3d 2514 bd3d
00000090: 8663 9dbd 6064 d1bb 8c70 d6bd c058 c3bd
000000a0: 44c3 d03d d80c 4c3d db7e a13d 5c7c bb3d
000000b0: 3bbb 513c 81e1 2b3d 9954 8dbd 634b a5bd
000000c0: 8997 27bd 8089 89bd ec23 0b3e 81a2 e3bd
000000d0: 39d9 e63d 91b0 05bc a33f af3c 439b ff3d
000000e0: 6b65 4ebd 1ab9 18bd 5100 763d 8b7a 54bd
000000f0: 0ad6 743c da3c ce3d 2162 523b 8099 f13d
00000100: 0038 0bbc 347c 963d 6079 4a3c 2998 b2bd
00000110: 2e41 63bc 4e0c 303d d42e 99bd 754e e63d
00000120: aab7 b1bd e621 663d 8b89 103d b8ad 78bd
00000130: 4f83 b73d 9a30 22bd 39d1 623c 9552 99bc
00000140: dddd e7bd cdff d43d bae2 45bd 6faa ba3d
00000150: 0e9a 9c3d 473b 873d 651d 433d f919 653d
00000160: f5db adbd 8d1b 43bc 9cb2 02bd edea d33d
00000170: 41ea 4b3d 0118 333c 67aa d8bd 8bd0 07be
00000180: 1d8f b4bd 4ca8 7a3d 68e8 b03d b1d6 e7bd
00000190: 734e e7bd a872 fe3d 3e56 583d 64bf b4bd
000001a0: 06e0 56bc 3e1e 5e3d 693a 3e3d d3ee 773a
000001b0: 1fe8 62bd f668 4dbd 8ef9 00bd ecaf a8bd
000001c0: 25ea adbd 10d2 fa3d 9e19 cf3c d9e6 fc3c
000001d0: 2395 b8bd c47b 443d 3ddc 193e 41fc bc3d
000001e0: 6a0f eebc 61bd 29bd a2ca 003e abb5 37bd
000001f0: 558b 46bc 6fab 2e3c 00ff e1bc bce9 313b

model.2.weight f4 [256, 128]
-0.032493126 -0.10068303 -0.017878583 0.0486086 -0.115486816 0.093232386 0.11023341 -0.056642298
0.085907966 0.059733223 0.0305847 -0.049849752 0.13369642 0.051574014 0.009136056 -0.04291449
-0.0005369798 -0.104114294 0.16142823 0.020048732 -0.03753487 0.044018883 -0.07836187 -0.040675048
-0.005488135 0.0143628325 0.036655955 0.009909444 0.10097045 0.08698005 -0.13482927 -0.06493731
0.061849456 0.08951427 0.10775059 0.05594941 0.027701328 -0.01696862 0.0056677503 0.03353964
-0.0780064 0.042504948 -0.046011053 -0.08294877 0.07574197 0.045706887 -0.05821658 0.0849291
-0.05560053 0.08972943 0.0024227202 -0.06486291 0.0035310304 -0.031334274 0.028913364 -0.06374957
0.059556533 0.009378836 0.016209863 -0.05854313 -0.0032642249 0.02361848 0.016102124 -0.06966626
0.045649886 0.03338459 -0.044961534 -0.020552034 -0.10373042 -0.08221976 -0.059239257 0.1010608
-0.004718249 -0.094659775 0.12608346 0.03273029 -0.10302376 0.04788966 -0.1273669 0.009120247
-0.024619287 -0.046764966 -0.122774206 -0.052374266 -0.040720727 -0.007012503 0.024682628 -0.13011472
-0.084142715 -0.06567898 0.0048921863 0.02610369 0.009727362 0.07981122 -0.16056532 -0.006227739
0.005609518 -0.10121068 -0.09219572 -0.031089878 -0.031680167 0.037669644 0.085537195 0.0038861886
0.037027936 -0.11109508 -0.057531063 -0.19467647 -0.07598248 -0.058562655 0.016368065 -0.06434269
0.04375559 -0.071825616 -0.053997558 0.10535077 0.039376978 0.0033552884 -0.019991884 -0.110666536
0.064302176 -0.026436724 0.017155817 0.0041477275 0.035403848 0.027590135 -0.0031560173 -0.02671374
0.06685754 -0.017046604 0.028149808 -0.030610738 -0.115550704 0.015956812 -0.1066901 -0.062493518
-0.043867826 0.067817 0.070307165 0.1376283 0.12625143 0.018857777 0.042276643 0.03873624
-0.048009664 0.06562722 0.13797121 0.092601694 0.048250522 0.0092919255 -0.08912136 -0.02927137
-0.105108365 0.09592728 -0.02177873 -0.0023228636 -0.056037318 0.0014865615 -0.07270604 -0.0019594918
0.057358794 -0.15107651 0.0006670213 -0.031065224 0.016449483 -0.14173184 -0.0388395 -0.07038305
-0.18945369 -0.05550885 0.010856167 0.09441433 -0.027181424 0.0010676372 0.0015955706 -0.025015386
0.09600798 0.04185294 -0.06272449 0.02487435 0.07178054 0.05150866 0.06910837 0.115368746
0.07559724 -0.026767373 0.04697317 0.017727654 -0.12725846 0.04150603 -0.110063635 0.106745616
0.09442244 0.08003229 0.074061036 0.097173385 -0.10185588 -0.13715395 -0.05539252 0.0009899056
0.0147110885 0.055584304 0.08783701 0.062966436 -0.087701246 0.027645377 -0.0502526 -0.05130929
-0.06241609 0.054485057 0.07733289 0.00027729446 0.08381837 0.07643504 0.028833384 -0.062160812
-0.043634787 0.11242854 -0.14635043 -0.05643083 -0.09871978 -0.027844485 0.0750719 -0.12384214
-0.06570085 0.049514607 0.068616845 -0.02548947 0.06948755 -0.08206425 -0.002079972 0.019644646
-0.0137425 0.05004629 -0.11358841 0.0032981478 0.0073649 0.0057615335 0.03889586 -0.0028994589
0.073890656 0.030873269 -0.097505495 0.10044111 0.0094502345 -0.08405129 -0.09478835 0.08610528
0.03194822 0.004778377 0.09447384 0.08142732 0.05793118 0.016365528 -0.017928148 -0.00080217107
00000000: 8317 05bd e832 cebd 1b76 92bc d019 473d
00000010: 5a84 ecbd 9ff0 be3d 0ec2 e13d c101 68bd
00000020: 84f0 af3d d3aa 743d c48c fa3c 412f 4cbd
00000030: b7e7 083e 463f 533d 65af 153c 1bc7 2fbd
00000040: 1bc4 0cba e039 d5bd 714d 253e 3d3d a43c
00000050: 2abe 19bd 254d 343d 307c a0bd e19a 26bd
00000060: d0d5 b3bb 1652 6b3c 8e24 163d 385b 223c
00000070: 98c9 ce3d 9922 b23d af10 0abe dafd 84bd
00000080: db55 7d3d 4253 b73d 57ac dc3d 352b 653d
00000090: e5ed e23c c601 8bbc 89b8 b93b dd60 093d
000000a0: d2c1 9fbd ab19 2e3d 1676 3cbd 0be1 a9bd
000000b0: 9b1e 9b3d 2537 3b3d 8274 6ebd 4fef ad3d
000000c0: 62bd 63bd 10c4 b73d 80c6 1e3b d8d6 84bd
000000d0: dc68 673b 5e58 00bd b8db ec3c 228f 82bd
000000e0: 8df1 733d b0a9 193c 8cca 843c ecca 6fbd
000000f0: 9bec 55bb 8b7b c13c 9ae8 833c 2fad 8ebd
00000100: 60fb 3a3d 48be 083d 9629 38bd bd5c a8bc
00000110: 9d70 d4bd d562 a8bd dda4 72bd f7f8 ce3d
00000120: 8b9b 9abb fcdc c1bd 061c 013e 3210 063d
00000130: 1ffe d2bd f327 443d 786c 02be 176d 153c
00000140: 63ae c9bc 9f8c 3fbd 0b71 fbbd 6686 56bd
00000150: c7ca 26bd 24c9 e5bb 3933 ca3c cb3c 05be
00000160: 0453 acbd b382 86bd a24e a03b 68d7 d53c
00000170: 835f 1f3c 1174 a33d 3c6b 24be 1012 ccbb
00000180: 0cd0 b73b 8c47 cfbd 1cd1 bcbd 33b0 febc
00000190: 10c3 01bd 7c4b 1a3d 202e af3d 6daf 7e3b
000001a0: 9baa 173d d185 e3bd b1a5 6bbd 4559 47be
000001b0: b49c 9bbd 65df 6fbd 5216 863c 1ac6 83bd
000001c0: 1039 333d 4f19 93bd 8b2c 5dbd 25c2 d73d
000001d0: c149 213d 66e4 5b3b 05c6 a3bc 23a5 e2bd
000001e0: dcb0 833d d491 d8bc 5b8a 8c3c a9e9 873b
000001f0: a003 113d b504 e23c 2fd5 4ebb c6d6 dabc
00000200: 9bec 883d 52a5 8bbc 6d9a e63c 5fc3 fabc
00000210: d9a5 ecbd dcb7 823c 5780 dabd 34f9 7fbd
00000220: c0ae 33bd a4e3 8a3d 34fd 8f3d 6fee 0c3e
00000230: 0e48 013e a07b 9a3c 462a 2d3d e4a9 1e3d
00000240: c8a5 44bd 9067 863d 5348 0d3e f5a5 bd3d
00000250: 57a2 453d 293d 183c 4285 b6bd 83ca efbc
00000260: 0e43 d7bd 8675 c43d 4f69 b2bc 2f3b 18bb
00000270: 6387 65bd bad8 c23a e8e6 94bd d16a 00bb
00000280: 0ef1 6a3d cdb3 1abe 0bdb 2e3a 7f7c febc
00000290: 11c1 863c 2722 11be 2b16 1fbd fd24 90bd
000002a0: 2600 42be 3f5d 63bd 11de 313c 4d5c c13d
000002b0: 94ab debc f6ef 8b3a 7722 d13a 11ed ccbc
000002c0: d59f c43d fd6d 2b3d b375 80bd 4bc5 cb3c
000002d0: ad01 933d bffa 523d b088 8d3d 7346 ec3d
000002e0: bad2 9a3d 4047 dbbc f066 403d 9639 913c
000002f0: 0b50 02be 3a02 2a3d 0b69 e1bd 729d da3d
00000300: 8d60 c13d f8e7 a33d 50ad 973d d702 c73d
00000310: d199 d0bd 1672 0cbe 44e3 62bd b8bf 813a
00000320: c706 713c 5eac 633d e4e3 b33d 8cf4 803d
00000330: b69c b3bd 8f78 e23c acd5 4dbd b129 52bd
00000340: 04a8 7fbd b92b 5f3d b560 9e3d d561 9139
00000350: f7a8 ab3d f989 9c3d fd33 ec3c 569c 7ebd
00000360: 64ba 32bd ef40 e63d e3dc 15be 0424 67bd
00000370: 992d cabd 1e1a e4bc 4cbf 993d f3a0 fdbd
00000380: 2b8e 86bd d4cf 4a3d fd86 8c3d 4bcf d0bc
00000390: 7d4f 8e3d 4d11 a8bd 2450 08bb cfed a03c
000003a0: 3928 61bc 57fd 4c3d 0aa1 e8bd bd25 583b
000003b0: 4255 f13b 3fcb bc3b 4451 1f3d d904 3ebb
000003c0: fc53 973d f0e9 fc3c f6b0 c7bd 12b4 cd3d
000003d0: 28d5 1a3c 1523 acbd 6520 c2bd f757 b03d
000003e0: 23dc 023d ee93 9c3b 807b c13d 5ec3 a63d
000003f0: 3f49 6d3d 0011 863c 0dde 92bc ca48 52ba

model.2.bias f4 [256]
0.0045809746 -0.059472106 -0.054262027 0.08341035 -0.0049599116 0.016427722 -0.09745959 -0.06253202
0.030822862 0.091040306 -0.041518334 0.085846536 -0.0066540847 0.058347065 0.08866569 -0.059326064
0.09090305 0.07045904 -0.061849754 -0.009238579 -0.016817661 -0.07908136 0.00015061318 -0.019254742
0.08335269 -0.05006797 -0.06661127 -0.07769549 0.022521341 -0.0045486367 0.031751398 -0.08085863
-0.064856604 0.026141295 0.014013238 0.0661631 4.6811547e-05 -0.027635567 0.089744754 -0.055342987
0.092999175 0.08275927 0.07194245 0.06773671 0.04679627 -0.07485984 -0.018528825 -0.035899643
0.03400828 0.06139058 0.025638191 0.0094286045 -0.05979105 0.07376876 -0.015786214 0.014614
0.0066755484 -0.06450196 -0.072146416 0.064029954 0.0017930885 0.026637463 -0.08207457 -0.00021626822
-0.023940867 -0.04295863 0.040799897 0.0928805 -0.06984395 0.036300838 0.057540458 0.009052656
-0.06267513 -0.04264355 0.0058398414 0.09636806 0.08267708 -0.038548477 0.014653726 0.0017721109
0.031663604 0.052082628 -0.008212604 0.010750244 -0.031580266 0.089429446 0.09249775 0.011464487
0.09718205 -0.04909038 -0.017196331 -0.037371952 -0.010457399 0.042388372 0.011004942 -0.020327644
-0.05067385 -0.011972581 0.058875393 -0.02452778 -0.054810487 0.08730168 0.036794774 0.02064174
-0.02819988 0.08947486 -0.059308287 0.03513209 -0.05499333 -0.06851354 -0.050682362 0.09487494
0.10613773 -0.07515284 -0.04561292 -0.062903516 -0.021799898 0.044278786 -0.05416379 0.105309345
-0.033313587 0.060628347 -0.08065009 -0.06663064 0.047661807 0.048490226 0.07923169 0.026888933
0.081789285 0.04251325 -0.015193073 -0.0042876233 -0.022827523 -0.021974415 0.007840649 0.09299073
0.02935842 0.009214314 0.012737689 0.04649007 -0.05020022 -0.084201984 0.03638807 -0.10124671
0.09776697 0.038895745 0.08262857 -0.012067144 -0.036020063 -0.022423834 0.054558344 0.045998417
0.0008358494 -0.043588217 -0.05853418 0.079642795 -0.012536244 0.07223458 -0.09119463 -0.0031119336
0.029496834 0.06331753 -0.02856481 -0.00901658 0.04032687 -0.013632117 -0.0014842463 0.030743789
-0.0214379 0.012501498 -0.045634124 0.019855818 -0.049266826 -0.026631493 -0.11483797 -0.023712823
0.046461463 0.045613002 -0.0020859283 0.011212318 -0.038041882 -0.021602012 -0.0480633 0.05746022
0.0787265 0.0026256954 0.0044207005 0.061266392 -0.027430454 -0.0051579066 0.11807062 -0.07206051
0.0015081643 -0.06897921 -0.062159058 -0.08729187 0.11093067 0.022694282 0.038184557 -0.07447183
-0.06485974 0.012834814 -0.06483922 -0.050656233 -0.012450637 -0.024667235 0.07843005 0.0813199
0.02721998 0.07788698 0.067064375 0.008216082 -0.033639833 -0.00065589143 0.03494729 -0.060748678
-0.092170335 0.025089363 -0.029246546 0.05904449 0.047477175 -0.068214014 0.024349736 -0.0270248
0.060345042 0.046499763 -0.06763411 0.03856169 0.07194259 -0.044849895 0.07637015 -0.06572129
0.053017445 -0.0050927512 0.0485443 0.017653653 0.06876025 0.006661739 0.11306852 -0.0063192816
-0.05058833 -0.049179856 -0.081685886 0.02157878 0.004818913 -0.06140499 -0.06764877 -0.051536474
-0.025347946 0.053331092 0.051583037 -0.05523732 -0.01643551 0.016753966 0.007660285 -0.052182868
00000000: 001c 963b 0699 73bd dc41 5ebd 0cd3 aa3d
00000010: c186 a2bb 6e93 863c e598 c7bd ca10 80bd
00000020: 3a80 fc3c 5773 ba3d 210f 2abd 4fd0 af3d
00000030: 820a dabb 55fd 6e3d 5b96 b53d e3ff 72bd
00000040: 612b ba3d d44c 903d 2b56 7dbd 695d 17bc
00000050: 31c5 89bc 68f5 a1bd ebed 1d39 1fbc 9dbc
00000060: d1b4 aa3d 1214 4dbd 7d6b 88bd d01e 9fbd
00000070: ad7e b83c bb0c 95bb c10d 023d 3699 a5bd
00000080: 8ad3 84bd 4526 d63c c897 653c 8580 873d
00000090: 8457 4438 fc63 e2bc 19cc b73d 54af 62bd
000000a0: 5a76 be3d b17d a93d 9056 933d 8bb9 8a3d
000000b0: 72ad 3f3d 1e50 99bd c3c9 97bc 810b 13bd
000000c0: 444c 0b3d b074 7b3d 2f07 d23c 6f7a 1a3c
000000d0: 76e7 74bd 1314 973d 1752 81bc 8f6f 6f3c
000000e0: 8fbe da3b 9b19 84bd 80c1 93bd 2322 833d
000000f0: 1106 eb3a cf36 da3c b616 a8bd 0fc6 62b9
00000100: a31f c4bc 63f5 2fbd cb1d 273d 2238 be3d
00000110: 580a 8fbd 30b0 143d 8baf 6b3d 9751 143c
00000120: d25b 80bd 01ab 2ebd 245c bf3b 9e5c c53d
00000130: 9a52 a93d 02e5 1dbd 2e16 703c 2d46 e83a
00000140: b2b1 013d 9854 553d 288e 06bc cb21 303c
00000150: 4f5a 01bd c926 b73d 766f bd3d 8bd5 3b3c
00000160: 6207 c73d ff12 49bd 52df 8cbc 5513 19bd
00000170: 8355 2bbc 6e9f 2d3d 124e 343c 2986 a6bc
00000180: 628f 4fbd a528 44bc 5327 713d 7cee c8bc
00000190: f680 60bd 39cb b23d 1eb6 163d de18 a93c
000001a0: 6f03 e7bc 983e b73d 3fed 72bd abe6 0f3d
000001b0: b040 61bd d450 8cbd 4f98 4fbd cb4d c23d
000001c0: bd5e d93d bbe9 99bd 9dd4 3abd 8fd3 80bd
000001d0: b395 b2bc ac5d 353d dada 5dbd 6dac d73d
000001e0: d473 08bd 6e55 783d e02b a5bd a575 88bd
000001f0: 0739 433d b09d 463d 3944 a23d 2e46 dc3c
00000200: 2481 a73d 6022 2e3d 5eec 78bc 317f 8cbb
00000210: c900 bbbc b003 b4bc 1176 003c ed71 be3d
00000220: 1281 f03c a2f7 163c bdb1 503c 5f6c 3e3d
00000230: bf9e 4dbd 1772 acbd a80b 153d 6f5a cfbd
00000240: 0d3a c83d 2551 1f3d 2b39 a93d 45b5 45bc
00000250: c689 13bd 30b2 b7bc 9278 5f3d d668 3c3d
00000260: e71c 5b3a 8f89 32bd 89c1 6fbd c31b a33d
00000270: d164 4dbc b9ef 933d 40c4 babd 95f1 4bbb
00000280: 58a3 f13c 9fac 813d c000 eabc 47ba 13bc
00000290: ca2d 253d 3e59 5fbc 0b8b c2ba 66da fb3c
000002a0: 899e afbc 15d3 4c3c d9ea 3abd aba8 a23c
000002b0: 03cc 49bd 4a2a dabc 2b30 ebbd 6541 c2bc
000002c0: 604e 3e3d b3d4 3a3d 12b4 08bb dfb3 373c
000002d0: ced1 1bbd b4f6 b0bc 06de 44bd 685b 6b3d
000002e0: 5c3b a13d dc13 2c3b 86db 903b 78f2 7a3d
000002f0: d5b5 e0bc a803 a9bb 02cf f13d 7694 93bd
00000300: 99ad c53a f944 8dbd 7f9a 7ebd 14c6 b2bd
00000310: 9e2f e33d 5ce9 b93c 6967 1c3d b084 98bd
00000320: 2fd5 84bd 1d49 523c 6dca 84bd e97c 4fbd
00000330: c2fd 4bbc f112 cabc ef9f a03d 0c8b a63d
00000340: 6ffc de3c 3583 9f3d 0c59 893d bf9c 063c
00000350: ecc9 09bd 21f0 2bba e424 0f3d 9bd3 78bd
00000360: cdc3 bcbd 3588 cd3c 7496 efbc a3d8 713d
00000370: 6d77 423d cab3 8bbd 1979 c73c 1d63 ddbc
00000380: 5d2c 773d 8976 3e3d c183 8abd ddf2 1d3d
00000390: a356 933d 86b4 37bd f467 9c3d e298 86bd
000003a0: d228 593d 18e1 a6bb 63d6 463d 659e 903c
000003b0: 2dd2 8c3d b84a da3b 7890 e73d fa11 cfbb
000003c0: b535 4fbd d170 49bd ee4a a7bd fbc5 b03c
000003d0: f9e7 9d3b cc83 7bbd 708b 8abd e917 53bd
000003e0: 7fa6 cfbc b471 5a3d bc48 533d 8740 62bd
000003f0: c3a3 86bc 9d3f 893c 2103 fb3b b4bd 55bd

model.3.weight f4 [256, 256]
-0.015152943 -0.0112100765 -0.050493643 0.062684424 -0.06149965 0.0030413703 -0.025357027 0.0026447808
-0.09441382 0.051455177 -0.021235881 0.04992308 0.087741576 0.07448843 -0.0031812217 0.021326272
0.015185711 0.031553697 -0.053723875 -0.030914305 0.012572244 0.025433773 -0.08771288 -0.025697447
0.0028978263 0.16158915 0.056514632 0.024512334 -0.060435623 0.03798665 -0.034696188 -0.03949759
0.0085227005 -0.05239524 0.023799824 0.034822486 -0.020215463 0.028769024 -0.003837154 0.03280099
-0.028235931 0.023310285 -0.0041996674 -0.072516784 -0.013994288 -0.013351162 0.013495798 -0.06288928
0.009981684 0.039849114 0.030168395 -0.065311626 -0.028510617 0.06058262 0.021341037 -0.032936268
0.017054923 0.03071749 -0.078849874 -0.030996323 0.017410325 -0.07772532 -0.05576149 -0.042165753
-0.033808064 -0.02700796 0.04051287 0.03703367 0.03526881 0.045771107 0.077717185 0.017149718
0.024721442 -0.004080073 0.0625991 0.033890218 0.06414707 0.020553539 0.07594689 0.010836531
-0.032367382 -0.051967442 0.022854831 0.02488855 0.025153873 -0.005180469 -0.041431185 -0.02284307
0.0029063923 -0.007855151 -0.00819769 0.026537634 0.08690633 0.10020055 0.077565245 0.009908053
0.004809637 0.027396549 0.06775374 0.022073772 -0.06250459 0.015783018 -0.02710213 0.006750677
0.0033042685 0.028756695 -0.038771506 -0.049180392 0.043244995 0.042517956 9.783814e-05 -0.0264026
0.060180165 0.011299616 -0.0066057355 0.035597075 0.06847825 0.047670305 0.08388244 -0.025369659
0.013350543 0.045530446 -0.03788799 0.09009319 0.024640033 0.0040683183 0.024269398 0.025201712
-0.016816908 0.06174293 -0.042736232 -0.016414842 0.015674796 0.057453018 0.055535283 0.0061712777
0.009913633 0.014269898 -0.009842133 -0.01515711 0.068039484 0.022095805 0.015394458 0.004177213
0.060481865 0.07493615 0.055060815 -0.18060741 0.0043697907 0.039058764 -0.0074179317 -0.040673267
-0.007474239 -0.045143157 0.009132339 0.0014614806 0.00077372056 0.010107974 0.011664803 -0.052929845
-0.02120746 -0.053665906 -0.041581914 -0.050353147 0.072343886 -0.025890157 -0.012079309 -0.037396315
0.007395352 0.018351195 0.07363264 0.068273485 0.028913336 -0.024288993 0.0059375586 0.060380008
0.033342436 0.032014504 0.033570655 -0.08455151 -0.0121493805 0.1528912 0.0091086505 0.01492458
0.06724476 0.010741133 -0.014890152 -0.021372437 0.011678848 0.01054327 0.035690047 -0.053207982
0.11536064 0.050400075 -0.065402694 0.041100595 0.0653079 0.09335529 0.04577262 -0.021944731
-0.017165534 -0.012413745 -0.036055252 0.011120854 -0.02038955 -0.018507533 0.09056845 -0.01863259
0.011120942 0.041001193 -0.043363146 -0.009612486 -0.01668193 0.09033579 -0.018586302 0.0062581827
0.027829794 0.0033738906 0.060640804 0.043972723 -0.004406597 -0.037428357 0.02481622 -0.0059009795
0.015559954 0.026135573 -0.0077323546 0.011299699 -0.0016169604 0.12100091 0.08792548 0.08228825
0.08169037 -0.0048453216 0.0063565816 -0.009235261 0.061559584 -0.049557585 -0.02127312 0.008224829
0.033420138 -0.0090635745 -0.06196254 -0.04661218 0.008848511 0.051046804 -0.0007866799 0.0551231
0.0737817 0.05893625 -0.027969822 0.023670983 -0.07779843 -0.07841066 0.044931095 -0.034870595
00000000: 0d44 78bc 78aa 37bc 6cd2 4ebd b160 803d
00000010: 0fe7 7bbd ba51 473b 8ab9 cfbc 0f54 2d3b
00000020: 085c c1bd aac2 523d dff6 adbc 257c 4c3d
00000030: dbb1 b33d 648d 983d 0b7c 50bb 6fb4 ae3c
00000040: 7dcd 783c 733e 013d 910d 5cbd ff3f fdbc
00000050: d0fb 4d3c 7d5a d03c cfa2 b3bd 7483 d2bc
00000060: 75e9 3d3b a077 253e e37b 673d 17ce c83c
00000070: 588b 77bd e497 1b3d 971d 0ebd 3ac8 21bd
00000080: cca2 0b3c 649c 56bd d9f7 c23c 06a2 0e3d
00000090: e69a a5bc 04ad eb3c c378 7bbb 555a 063d
000000a0: 0a4f e7bc 36f5 be3c 5d9d 89bb ae83 94bd
000000b0: 4c48 65bc d5be 5abc 7b1d 5d3c 18cc 80bd
000000c0: 388a 233c d338 233d b623 f73c 1ac2 85bd
000000d0: 198f e9bc 7b25 783d 66d3 ae3c 2ee8 06bd
000000e0: c4b6 8b3c 3fa3 fb3c 0b7c a1bd 00ec fdbc
000000f0: 19a0 8e3c 742e 9fbd 2966 64bd ffb5 2cbd
00000100: 537a 0abd cc3f ddbc d3f0 253d 9eb0 173d
00000110: 0776 103d 7c7a 3b3d 302a 9f3d 917d 8c3c
00000120: 9f84 ca3c 22b2 85bb f533 803d 78d0 0a3d
00000130: 8a5f 833d e55f a83c 0b8a 9b3d b58b 313c
00000140: a993 04bd d0db 54bd 0e3a bb3c 13e3 cb3c
00000150: 7f0f ce3c ecc0 a9bb bfb3 29bd 6421 bbbc
00000160: 2c79 3e3b e4b2 00bc 9b4f 06bc 7465 d93c
00000170: f2fb b13d f235 cd3d 87da 9e3d 6355 223c
00000180: 299a 9d3b ba6e e03c 79c2 8a3d 0ed4 b43c
00000190: 6802 80bd 634b 813c 4905 debc c834 dd3b
000001a0: 6d8c 583b 2993 eb3c dfce 1ebd 6171 49bd
000001b0: aa21 313d 4f27 2e3d 742e cd38 444a d8bc
000001c0: 7a7f 763d 0622 393c ed74 d8bb 3dce 113d
000001d0: 533e 8c3d f041 433d 8fca ab3d 08d4 cfbc
000001e0: 3cbc 5a3c 227e 3a3d 7030 1bbd c782 b83d
000001f0: e5d9 c93c 874f 853b 9ed0 c63c d273 ce3c
00000200: 9dc3 89bc 28e6 7c3d 300c 2fbd 6b78 86bc
00000210: 6e68 803c db53 6b3d f778 633d 6e38 ca3b
00000220: ca6c 223c 4acc 693c e640 21bc 8755 78bc
00000230: 4958 8b3d 4302 b53c 0939 7c3c 01e1 883b
00000240: d5bb 773d 2078 993d 7387 613d 26f1 38be
00000250: 7630 8f3b 15fc 1f3d 1f12 f3bb 0399 26bd
00000260: 76ea f4bb 08e8 38bd ce9f 153c 278f bf3a
00000270: 82d3 4a3a ea9b 253c bb1d 3f3c f7cc 58bd
00000280: 44bb adbc c8d0 5bbd cc51 2abd 1a3f 4ebd
00000290: 0829 943d 9817 d4bc 4be8 45bc e12c 19bd
000002a0: b554 f23b 3f55 963c b6cc 963d f8d2 8b3d
000002b0: a9db ec3c b6f9 c6bc da8f c23b 0751 773d
000002c0: 1492 083d a421 033d 6281 093d 5829 adbd
000002d0: 320e 47bc 838f 1c3e 733c 153c 3a86 743c
000002e0: 9fb7 893d 94fb 2f3c d3f5 73bc 4015 afbc
000002f0: a458 3f3c aebd 2c3c ba2f 123d 9df0 59bd
00000300: 3342 ec3d 4f70 4e3d d9f1 85bd 1959 283d
00000310: 26c0 853d 0f31 bf3d 127c 3b3d 70c5 b3bc
00000320: bc9e 8cbc 0563 4bbc acae 13bd 3e34 363c
00000330: fc07 a7bc 1c9d 97bc f47b b93d 60a3 98bc
00000340: 9d34 363c def0 273d 8e9d 31bd b07d 1dbc
00000350: 8ba8 88bc f801 b93d 4d42 98bc 7111 cd3b
00000360: 4ffb e33c 7e1c 5d3b 7e62 783d be1c 343d
00000370: 3765 90bb 7a4e 19bd 634b cb3c 015d c1bb
00000380: 2def 7e3c 451a d63c b15f fdbb 5f22 393c
00000390: 30f0 d3ba 53cf f73d 4612 b43d be86 a83d
000003a0: 484d a73d 81c5 9ebb df4a d03b 7e4f 17bc
000003b0: e725 7c3d e5fc 4abd f744 aebc 6fc1 063c
000003c0: 8ee3 083d 637f 14bc 6fcc 7dbd 6aec 3ebd
000003d0: 58f9 103c 7416 513d 3239 4eba c2c8 613d
000003e0: dc1a 973d 2367 713d f820 e5bc a6e9 c13c
000003f0: c954 9fbd c595 a0bd ab09 383d 78d4 0ebd

model.3.bias f4 [256]
0.09417887 -0.029519463 0.07520285 0.059818394 0.051953252 0.015301459 -0.017886918 0.0543619
0.059058253 -0.036773037 -0.03981528 0.059071217 0.04031666 -0.022825245 -0.046059992 -0.017397158
-0.018841425 0.041439585 -0.022481153 1.4264152e-06 0.086585216 -0.001028484 0.009634158 9.006828e-05
-0.05865616 0.065599635 -0.00046525858 0.02787596 -0.01211987 0.07418101 0.011220976 0.10827523
-0.007174837 -0.042840198 0.08815903 0.020306088 -0.06537011 0.038790584 -0.025169242 0.06801294
-0.022957116 -0.047092132 -0.03816741 -0.008386189 0.013689704 -0.038263693 -0.0334494 -0.014344217
0.09273301 -0.02916633 0.026807068 0.046169322 -0.0069846846 0.04431098 0.06746492 -0.03774032
-0.0031087208 0.06478737 0.040536247 0.01599529 -0.05234158 -0.0039523966 0.0591433 -0.01375089
0.07379839 1.7974528e-06 0.012003121 0.038066134 0.025711821 0.060877915 0.04866972 -0.06699827
-0.040544532 -0.009837482 0.09508042 0.008095074 -0.030931847 -0.03836008 0.00049494 -0.030551558
0.071099944 -0.073643275 0.004063886 -0.01964478 -0.0691624 -0.062892765 0.026800549 -0.043024246
-6.0715145e-05 -0.05930304 0.016160846 0.010077415 -0.018571494 -0.032456703 0.0055451295 0.03668956
0.08234397 0.043255944 -0.041079264 -0.044038955 0.02137735 0.062833086 -0.028346457 -0.06362249
0.10806112 0.018779753 -0.022458019 0.07181872 0.045701258 0.012264627 0.106205024 0.06887062
0.048390333 0.031908352 0.11045198 -0.010192555 0.029973079 -0.021192621 0.027304078 -0.030694874
0.052593812 -0.027256675 0.049550645 0.03034627 0.106117986 0.04628493 0.06235176 0.0020782351
-0.025980316 0.024120972 0.007776392 0.07601042 0.031855695 0.01583245 -0.057950124 0.00327672
-0.0019195874 0.049083278 -0.0019418777 -0.0016953872 -0.032294624 -0.058646224 -0.014419286 0.067808054
0.11102582 -0.035346825 0.06609028 0.06200136 0.044809848 0.03150232 0.07588638 -0.0021367657
-0.06917151 0.07559076 0.07265359 0.04157217 0.025621124 -0.03637256 0.047803383 0.00081463164
0.08441879 0.042603433 0.041246552 0.014890608 0.04121251 -0.06595144 0.008482479 -0.06437108
0.0068738554 -0.044342555 -0.024287008 -0.0016657369 -0.053004548 0.10073628 -0.040585488 0.041469652
0.0030882282 0.06546292 0.11534977 0.059521474 -0.03345106 0.017679673 0.04771461 0.027985195
-0.017104281 0.020210335 0.010065676 -0.037222628 0.070730574 0.027078971 -0.066383325 -0.02506337
-0.009272124 0.0592083 0.083337106 -0.06788142 0.05726792 0.0376844 -0.07437355 0.030387998
0.10274836 -0.0051677213 0.035660706 0.05215661 0.04525754 0.07100499 -0.05057923 0.047001567
0.023412785 -0.027207725 -0.045033984 0.08397283 0.07334952 -0.0041016373 -0.040575452 -0.03686976
-0.0042220172 0.041557074 0.059056994 0.079632156 -0.014205105 0.07198779 0.008009884 0.028187387
0.0441206 0.0025781645 -0.016756842 0.03474942 -0.0216907 -0.02433546 0.116767764 -0.05315838
0.0023043796 -0.038224272 -0.024167083 0.10776407 0.0023799145 -0.05636404 0.017169356 0.054694064
0.03932627 -0.012968978 -0.02991387 0.07720128 -0.032544922 0.078142814 0.07858681 0.0395962
0.08972346 -0.025935283 0.07212789 0.028646927 -0.026805386 -0.0059686922 -0.05424785 -0.039993804
00000000: dae0 c03d cdd2 f1bc f403 9a3d 2204 753d
00000010: efcc 543d f8b2 7a3c 9687 92bc 95aa 5e3d
00000020: 11e7 713d 539f 16bd 5915 23bd a9f4 713d
00000030: 1523 253d 02fc babc 67a9 3cbd 7c84 8ebc
00000040: 5559 9abc 8ebc 293d 652a b8bc 4173 bf35
00000050: 9753 b13d 32ce 86ba 96d8 1d3c 0ae3 bc38
00000060: 7141 70bd 1a59 863d f3ed f3b9 205c e43c
00000070: 6b92 46bc 37ec 973d 2fd8 373c 67bf dd3d
00000080: e51a ebbb 3479 2fbd b98c b43d f458 a63c
00000090: c4e0 85bd e0e2 1e3d ba2f cebc 5e4a 8b3d
000000a0: 9010 bcbc aee3 40bd 6e55 1cbd 3a66 09bc
000000b0: c84a 603c 64ba 1cbd 3d02 09bd 0204 6bbc
000000c0: ceea bd3d 3aee eebc 7f9a db3c 0b1c 3d3d
000000d0: c8df e4bb 6e7f 353d 0c2b 8a3d 9895 1abd
000000e0: aebb 4bbb 3eaf 843d 5609 263d 8e08 833c
000000f0: 2064 56bd 1b83 81bb 3f40 723d 6a4b 61bc
00000100: 9c23 973d 0240 f135 bda8 443c 3ceb 1b3d
00000110: 99a1 d23c 1f5b 793d e659 473d 6436 89bd
00000120: 0612 26bd 642d 21bc 86b9 c23d 34a1 043c
00000130: c964 fdbc 761f 1dbd dcbe 013a 4347 fabc
00000140: d99c 913d 49d2 96bd 592a 853b 17ee a0bc
00000150: 04a5 8dbd eccd 80bd d38c db3c 313a 30bd
00000160: 64a8 7eb8 bfe7 72bd c063 843c be1b 253c
00000170: 3f23 98bc 52f1 04bd ebb3 b53b cb47 163d
00000180: f5a3 a83d 252d 313d bb42 28bd 3162 34bd
00000190: 8d1f af3c a2ae 803d d436 e8bc 824c 82bd
000001a0: 264f dd3d ffd7 993c e1f9 b7bc b115 933d
000001b0: 3e31 3b3d 93f1 483c 0582 d93d 0a0c 8d3d
000001c0: f134 463d 55b2 023d a634 e23d adfe 26bc
000001d0: 1a8a f53c 269c adbc cdac df3c d173 fbbc
000001e0: 9c6c 573d 6449 dfbc 9ef5 4a3d be98 f83c
000001f0: 6354 d93d 4495 3d3d 8f64 7f3d 0033 083b
00000200: acd4 d4bc 5899 c53c 1bd1 fe3b 5aab 9b3d
00000210: 1e7b 023d 0eb3 813c 1c5d 6dbd 3dbe 563b
00000220: aa9a fbba 8c0b 493d 9a86 feba c137 deba
00000230: 5e47 04bd 0637 70bd de3e 6cbc f3de 8a3d
00000240: 8161 e33d d5c7 10bd 575a 873d 23f5 7d3d
00000250: 888a 373d 9408 013d 526a 9b3d fb08 0cbb
00000260: cba9 8dbd 54cf 9a3d 68cb 943d 9447 2a3d
00000270: 64e3 d13c 65fb 14bd 7bcd 433d 018d 553a
00000280: c2e3 ac3d f080 2e3d 25f2 283d bdf7 733c
00000290: 73ce 283d 8c11 87bd 18fa 0a3c fcd4 83bd
000002a0: 143e e13b 8aa0 35bd 8cf5 c6bc db54 daba
000002b0: 4c1b 59bd d34e ce3d f83c 26bd 15dc 293d
000002c0: df63 4a3b 6c11 863d 803c ec3d cacc 733d
000002d0: fb03 09bd f6d4 903c 6570 433d 3541 e53c
000002e0: 471e 8cbc 2590 a53c 81ea 243c c176 18bd
000002f0: 31db 903d b8d4 dd3c fbf3 87bd b251 cdbc
00000300: 1bea 17bc 6784 723d a5ac aa3d 6a05 8bbd
00000310: c491 6a3d f55a 1a3d 2951 98bd 40f0 f83c
00000320: bb6d d23d fd55 a9bb f610 123d 2ba2 553d
00000330: f85f 393d 106b 913d 2b2c 4fbd b784 403d
00000340: 2bcc bf3c bce2 debc 8e75 38bd f2f9 ab3d
00000350: 4638 963d 0767 86bb 7232 26bd bf04 17bd
00000360: d958 8abb c037 2a3d bfe5 713d 2f16 a33d
00000370: 87bc 68bc 566e 933d e33b 033c 3ce9 e63c
00000380: cdb7 343d 6cf6 283b a545 89bc 6855 0e3d
00000390: b2b0 b1bc 295b c7bc f023 ef3d 9abc 59bd
000003a0: 1305 173b 0e91 1cbd 0cfa c5bc 69b3 dc3d
000003b0: 57f8 1b3b fbdd 66bd c0a6 8c3c e206 603d
000003c0: 9514 213d d67b 54bc ef0d f5bc b41b 9e3d
000003d0: d34d 05bd 5709 a03d 1ff2 a03d a02f 223d
000003e0: efc0 b73d 3b76 d4bc cab7 933d f6ac ea3c
000003f0: f896 dbbc 0595 c3bb fe32 5ebd 8bd0 23bd

model.4.weight f4 [256, 256]
0.0818085 0.04747976 0.07338668 0.060134936 -0.024035098 -0.010218574 0.05259586 0.037733052
0.12593111 -0.054612454 0.0301171 0.034492057 0.04912065 0.040053196 0.045981888 0.0669208
0.03836353 -0.0016875141 -0.045160696 0.06726247 -0.0060628923 -0.06319243 0.0043718726 -0.017893437
0.012711168 0.034089886 0.00870382 -0.021869788 -0.0061998186 0.03194287 0.08325341 0.09101965
-0.009405289 -0.06766443 -0.031707678 0.055238165 -0.025660206 0.115959994 0.08870106 0.06461221
0.061961457 0.01497651 -0.026084457 -0.007812892 0.00034962295 0.044373605 0.015150975 0.06621455
-0.00057776313 -0.0070742867 -0.0074405973 0.13979496 0.01871419 0.0695323 0.08270172 -0.058988474
0.004590914 0.07362943 0.09126223 0.0072835353 -0.0192124 0.051640578 0.03770078 0.0047205123
-0.024022667 0.0037267047 0.0933949 0.03627803 0.06847602 0.08994229 -0.050570205 0.022909924
0.035979163 0.047796264 0.009203625 0.058275796 0.0037499687 0.02014308 0.092362486 0.035518475
0.019546943 0.006690596 0.049599186 0.093488835 0.062398158 -0.025910728 0.060753047 0.021127658
0.027639605 0.091805995 0.040181197 0.078449264 -0.028816318 0.11660163 0.0027705522 0.05061298
0.070071846 0.024552159 0.016618097 -0.011190228 0.08994683 -0.041584786 0.050847378 -0.039557535
-0.00021933294 0.05762378 -0.0041562286 0.019369306 0.10428857 0.05366856 0.09935495 0.080381736
0.0054281503 -0.0028558394 -0.023934117 0.04376666 -0.018311402 0.037848666 0.057256684 0.080934316
-0.019767897 -0.031128079 0.05910758 0.06867629 -0.01570358 -0.031291563 0.08535803 0.07822802
0.014387831 -0.010154439 0.056699872 -0.021524673 -0.033414308 -0.023384543 0.043018803 -0.015470313
0.039451964 0.08061129 0.07240198 0.10893537 0.065537155 -0.023041345 0.02784841 0.0860063
0.019740866 0.052908543 0.091308184 0.049522452 0.11354111 0.043708894 -0.061848074 0.0324912
-0.051630005 0.013419518 0.061692685 -0.012239864 0.036840517 0.060989823 0.0063100993 0.005289855
0.021650486 0.031358607 0.07589335 0.087165646 -0.023025727 0.096747346 0.048586942 0.13567297
-0.04262042 -0.0067505753 -0.027153872 -0.0018437994 0.03643929 0.032192446 -0.03478303 -0.0158815
-0.042393066 -0.01523316 0.04229328 0.033502523 0.08713234 -0.047488187 0.022308372 -0.022528198
0.086545594 -0.032490116 0.020611791 0.06081584 -0.009587266 0.077985235 -0.07325113 0.026906198
-0.025767645 0.0029847869 0.07506188 0.043266118 0.014081612 0.020866418 0.00078106625 -0.0065964237
0.07241049 -0.009554998 0.044096604 0.03222428 0.07881435 0.015895488 0.06207565 0.13961346
0.08614057 0.015579256 -0.077372946 0.06161544 -0.023930691 -0.0038924196 0.034995772 0.07428793
0.014501538 -0.0075370874 0.061435513 0.02292376 -0.026070047 0.04825954 0.052627362 0.07547586
0.06924747 -0.017818872 0.037576333 0.014320362 -0.057112206 -0.040051717 0.09298922 -0.03878706
-0.07452719 0.03533736 -0.037382077 0.08495012 0.1088825 0.012607836 0.07784715 0.073745236
0.0124817025 0.07571069 -0.05815847 0.052602462 0.014425559 0.056015626 -0.0022131233 0.08244392
0.043225825 0.03999185 -0.01572056 -0.00799218 -0.029929731 0.11903442 -0.0041873427 0.049336024
00000000: 378b a73d 237a 423d c14b 963d 0d50 763d
00000010: 41e5 c4bc ce6b 27bc c26e 573d f98d 1a3d
00000020: 16f4 003e 4fb1 5fbd 23b8 f63c 8b47 0d3d
00000030: bc32 493d d20e 243d 8157 3c3d c60d 893d
00000040: 1423 1d3d 942f ddba 6cfa 38bd e8c0 893d
00000050: 3aab c6bb 086b 81bd ed41 8f3b 4295 92bc
00000060: 8142 503c d6a1 0b3d 789a 0e3c 4528 b3bc
00000070: d927 cbbb 87d6 023d c480 aa3d 8368 ba3d
00000080: a418 1abc a693 8abd e9df 01bd 6a41 623d
00000090: 5a35 d2bc 6f7c ed3d e7a8 b53d 6853 843d
000000a0: 4ccb 7d3d 0960 753c 12af d5bc a501 00bc
000000b0: 994d b739 19c1 353d cc3b 783c 7e9b 873d
000000c0: 0775 17ba 6bcf e7bb 41d0 f3bb 6926 0f3e
000000d0: 804e 993c f366 8e3d 855f a93d e69d 71bd
000000e0: 616f 963b 07cb 963d b1e7 ba3d b9aa ee3b
000000f0: 5363 9dbc 1285 533d 226c 1a3d 87ae 9a3b
00000100: 2fcb c4bc bb3b 743b d345 bf3d 4698 143d
00000110: 283d 8c3d aa33 b83d b422 4fbd 98ad bb3c
00000120: e35e 133d 04c6 433d cdca 163c 9ab2 6e3d
00000130: 09c2 753b 1a03 a53c 8b28 bd3d d27b 113d
00000140: e920 a03c ca3c db3b 8428 4b3d 1377 bf3d
00000150: 3695 7f3d bc42 d4bc 30d8 783d e913 ad3c
00000160: 746c e23c c804 bc3d 0a95 243d 02aa a03d
00000170: 3310 ecbc d6cc ee3d 2792 353b 8e4f 4f3d
00000180: d481 8f3d 9c21 c93c ad22 883c 3857 37bc
00000190: 0b36 b83d cf54 2abd 5745 503d 1507 22bd
000001a0: bdfc 65b9 ea06 6c3d f930 88bb 61ac 9e3c
000001b0: 3f95 d53d 90d3 5b3d 9c7a cb3d 2e9f a43d
000001c0: a0de b13b 0929 3bbb 7b11 c4bc ab44 333d
000001d0: cb01 96bc 3407 1b3d fc85 6a3d e4c0 a53d
000001e0: 49f0 a1bc 5000 ffbc ca1a 723d 28a6 8c3d
000001f0: cba4 80bc 952b 00bd 31d0 ae3d 0336 a03d
00000200: f0ba 6b3c ce5e 26bc 203e 683d 8354 b0bc
00000210: 71dd 08bd f190 bfbc 7c34 303d 3277 7dbc
00000220: 6298 213d 8817 a53d 7d47 943d 8219 df3d
00000230: 5838 863d 34c1 bcbc 5922 e43c 1224 b03d
00000240: 99b7 a13c a1b6 583d c9ff ba3d 0ed8 4a3d
00000250: 3e88 e83d 1908 333d 6854 7dbd 7e15 053d
00000260: fc79 53bd 8add 5b3c 78b1 7c3d b689 48bc
00000270: 15e6 163d 77d0 793d f3c4 ce3b 8556 ad3b
00000280: 5c5c b13c e271 003d f96d 9b3d e783 b23d
00000290: 73a0 bcbc 7923 c63d 1a03 473d dbed 0a3e
000002a0: c092 2ebd ee33 ddbb cc71 debc a4ab f1ba
000002b0: 5d41 153d 3adc 033d a778 0ebd eb19 82bc
000002c0: 5aa4 2dbd 8194 79bc b83b 2d3d f139 093d
000002d0: 7172 b23d f982 42bd 0cc0 b63c 0e8d b8bc
000002e0: d13e b13d 5b14 05bd 0fda a83c 081a 793d
000002f0: e813 1dbc b9b6 9f3d b004 96bd 636a dc3c
00000300: ab16 d3bc 6a9c 433b 0bba 993d d037 313d
00000310: 90b6 663c 0df0 aa3c 78c0 4c3a d026 d8bb
00000320: f34b 943d 918c 1cbc a49e 343d 9bfd 033d
00000330: 6b69 a13d 4137 823c 0943 7e3d d5f6 0e3e
00000340: 786a b03d 2340 7f3c b575 9ebd 7960 7c3d
00000350: 4c0a c4bc f717 7fbb ba57 0f3d 4524 983d
00000360: dc97 6d3c acf9 f6bb cea3 7b3d 9cca bb3c
00000370: da90 d5bc ccab 453d ca8f 573d 1693 9a3d
00000380: 9ed1 8d3d e2f8 91bc a4e9 193d f49f 6a3c
00000390: 7dee 69bd 450d 24bd 2271 be3d 2edf 1ebd
000003a0: b6a1 98bd e8bd 103d f31d 19bd 54fa ad3d
000003b0: cafd de3d 1991 4e3c 546e 9f3d be07 973d
000003c0: 0e80 4c3c 350e 9b3d 9337 6ebd ae75 573d
000003d0: 2e59 6c3c a470 653d 0c0a 11bb 5cd8 a83d
000003e0: 900d 313d 7ece 233d 67c8 80bc a2f1 02bc
000003f0: 322f f5bc 51c8 f33d fa35 89bb 9214 4a3d
